checkpoint_critic.pth (torch_old, 89520 bytes, 9 tensors)

fcs1.weight f4 [128, 33]
000000 3e 3e 92 3d 99 c8 da 3d 7b e6 01 be e9 da 0f be
       0.07140778 0.10682792 -0.12685578 -0.14048351
000010 74 41 85 be 46 2c 4f 3f cb 1f 8f 3e 53 5b 76 bd
       -0.260265 0.8092693 0.27953944 -0.060145687
000020 eb 4f e3 bc 0d a6 4d be 25 a9 3e bb 6a be d1 3d
       -0.027748069 -0.20082875 -0.0029092517 0.10241397
000030 a9 fc fc bc 07 7f e5 bd 02 b2 83 3d b0 42 61 3e
       -0.030882197 -0.11205869 0.06430437 0.21998096
000040 39 a3 0a be 90 45 5f be b0 80 00 3f 13 d8 52 3e
       -0.13538827 -0.2180388 0.5019636 0.20590238
000050 2a c7 1c 3c 9d 4b 9c bb 9d 1a d3 bc f3 21 93 3c
       0.009568969 -0.004769756 -0.025769526 0.017960524
000060 72 8b b8 3a 9b 10 02 3e 4f b7 29 3e 3a d9 15 bd
       0.0014079644 0.12701647 0.16573833 -0.036584117
000070 3f b6 da bd 8d 9f 9e bd 5d 27 0c 3d c0 7e 85 bd
       -0.10679292 -0.07745276 0.034217227 -0.06518316
000080 cc e0 ed 3e 89 2c ca 3d bc 99 e6 bd bf 07 8e bc
       0.4646057 0.09871776 -0.11259791 -0.017337678
000090 59 e0 d2 be 7d 1f 3c 3d b8 da e4 be 14 90 ba 3e
       -0.4118679 0.045928467 -0.4469812 0.36438048
0000a0 0b 3f 01 be 83 05 15 3e cf 5b 94 3d 16 67 f0 bc
       -0.12621705 0.14552884 0.072440736 -0.02934603
0000b0 51 b0 a5 bd 4d 7d 40 bc d8 eb 52 bd 08 b8 bb 3c
       -0.0809027 -0.011748624 -0.05149445 0.022914901
0000c0 22 c7 a1 bc d6 76 9e 3d dc d1 d6 be 67 73 58 be
       -0.019748274 0.0773751 -0.41956985 -0.21137773
0000d0 f8 6f f2 3e 86 c2 fd bb 25 e5 c5 3c bf 9c 7b 3d
       0.4735105 -0.0077441363 0.024157116 0.06142878
0000e0 68 e1 9c bc 4c b8 b5 3c 55 35 19 3d 00 41 9a bc
       -0.01915045 0.022182606 0.037404377 -0.018829823
0000f0 10 02 d8 3e 2f 7d 48 3e 8b 32 a3 3d 9a e1 b5 be
       0.42189074 0.19579004 0.07968625 -0.35523683
000100 82 59 55 3d da ff 1f 3f bb b3 18 bd dc c2 0b bd
       0.052087314 0.62499774 -0.03728078 -0.03412138
000110 38 1a 63 bd d7 7e ed bd 94 36 97 bd b1 c9 15 3e
       -0.055444926 -0.115964584 -0.07383457 0.1462772
000120 7f 9a 73 3f bd fd da bd 75 4b 03 3c e4 29 9d bd
       0.9515762 -0.10692928 0.008013596 -0.07674006
000130 8f 7c 25 3d 57 b9 90 3c 0f 8a 6d 3d b2 22 1e bd
       0.04040199 0.017666502 0.05799299 -0.038607307
000140 2b 61 07 3d ad 6f 8c 3d e4 39 0b bf 4e 33 ae 3e
       0.03305165 0.06857238 -0.5438521 0.34023517
000150 98 02 ea be 7a fc 7f 3e b4 cb 2d 3c 26 a2 4f bc
       -0.45705104 0.24998656 0.010607649 -0.012672937
000160 0b 6b cf 3c 2e 6e 9e bc f5 8c da 3c 3f d6 ac 3c
       0.025319597 -0.019339647 0.026678542 0.021098254
000170 f6 de 22 3e 8e 27 8b 3e 9d cb 97 bc 45 98 8a bd
       0.15905365 0.27178615 -0.018529708 -0.06767324
000180 9f 2d 89 be 5a c7 1f bd fa ac 51 3f b7 3b 32 3e
       -0.2679262 -0.039008476 0.81904566 0.17405592
000190 7b 91 44 3d 17 c2 57 be 15 8f 8d 3e 65 3a b0 be
       0.047990303 -0.21070133 0.27648225 -0.34419551
0001a0 16 4c 0f bf fd 4c 72 bf 6c 78 21 3d fe d8 51 3d
       -0.5597547 -0.94648725 0.039421484 0.05123233
0001b0 06 19 56 3d 88 1e df 3c 57 e1 8c 3d 91 a2 a6 bc
       0.052269958 0.027236238 0.06878918 -0.02034119
0001c0 80 19 0c be 12 d4 07 bc eb 39 8a 3d 6d c1 d3 3e
       -0.13681602 -0.008290308 0.06749328 0.4135851
0001d0 c5 d3 02 be fd 8e a9 be 07 7c 82 3e 6d aa 2d 3d
       -0.12776096 -0.33116904 0.2548525 0.04239886
0001e0 8b 4b df 3d dc 08 54 3a c1 d2 3f bd 87 2f 79 bd
       0.109030806 0.00080884784 -0.04683185 -0.06083634
0001f0 58 14 d8 3c 68 8e e7 bb 88 69 69 3d c0 b9 37 3e
       0.026376888 -0.0070665367 0.056985408 0.17941952
000200 80 7c 6f 3c 67 89 51 3c 22 84 51 3d 21 e7 48 be
       0.014617085 0.012789107 0.051151402 -0.19619419
000210 27 2d ad be a1 3c 69 3d c9 2b 41 bd c8 ea 59 3e
       -0.3382351 0.056942586 -0.047160897 0.21280968
000220 0c 93 c2 3d fa cd d4 3c dc 17 ac 3d ea 6b bb 3d
       0.09500703 0.025977124 0.08402988 0.09151442
000230 6e 71 35 3d 50 b5 1d bd 78 42 62 bd 76 79 4a 3d
       0.044297628 -0.03850299 -0.05523917 0.04943224
000240 c7 fc 44 3d 10 32 66 3e 7e a0 76 3b ba 6b 90 3d
       0.04809263 0.22480035 0.0037632282 0.07051797
000250 28 fb 54 3e f1 c8 c6 be 0f 53 39 3f b2 4b 1c bf
       0.20798934 -0.3882518 0.7239236 -0.61053
000260 d4 db 83 bc 30 fe 4a bd 03 d6 1c 3c 0b c3 90 3d
       -0.016096033 -0.04955882 0.009572509 0.070684515
000270 86 3c 52 3d a7 f1 91 3d 34 51 ca bd d4 c7 ca 3c
       0.05132725 0.0712617 -0.098787695 0.024753489
000280 9e d1 db bc f8 f4 32 3c 26 1b 75 3d be dd 09 bd
       -0.026833352 0.010922663 0.059840344 -0.033658735
000290 12 ee 90 be d9 c5 25 be c9 3e 88 3c af 85 f0 3d
       -0.28306633 -0.16188754 0.0166315 0.11744248
0002a0 c5 12 ea 3c 6c 86 09 bf 57 34 16 3f 84 8a f0 3e
       0.028573403 -0.53720737 0.58673614 0.4698068
0002b0 94 a4 7f 3c 53 2d ed bd a0 f2 77 3e e3 c7 ba bd
       0.015603203 -0.115809105 0.24213648 -0.091201566
0002c0 a7 85 3d bd ed ae bc 3d 45 2d b8 bc b1 70 f7 bd
       -0.04627004 0.09213052 -0.022482524 -0.12082041
0002d0 d7 ec 84 bd aa 39 80 3c 95 f3 3a bf f6 c0 ce be
       -0.06490486 0.015652496 -0.73027927 -0.40381593
0002e0 0e 50 8c 3e 78 a9 3c bb fb 1a c6 bd a0 4e 24 3d
       0.27404827 -0.0028787535 -0.09673115 0.040114045
0002f0 d3 b9 0a be 36 7b 0c 3d 9e 55 c7 bc 7a 4c f3 bd
       -0.13547449 0.03429719 -0.024332818 -0.11879821
000300 14 aa a8 3e 6c 94 c3 bc a8 58 d2 3c 4c 5c 92 be
       0.3294226 -0.023874484 0.02567704 -0.28586042
000310 d6 49 6e bd 32 96 97 be b4 e6 85 3d 20 d7 6d be
       -0.058175884 -0.29606777 0.06538144 -0.23226595
000320 3f 25 42 3e 15 d3 56 3e 5f f9 c1 3e ae 3a 30 3f
       0.18959521 0.20978959 0.37885568 0.6883954
000330 e9 d1 34 be c8 69 2e bd 4d 40 e3 3e e8 0a 0a 3e
       -0.176582 -0.04258135 0.44384995 0.13480723
000340 63 7e a9 bd d3 a5 0c bd 12 e3 38 3e 8d 3d a9 bd
       -0.082760595 -0.03433783 0.1805537 -0.08263693
000350 0c 16 78 3e c4 92 2e 3a fe 10 f0 3e 43 1f 10 3e
       0.2422716 0.0006659443 0.46887964 0.14074425
000360 5e 4a a4 bd e4 83 68 be ef b6 60 3d 69 d1 d1 3d
       -0.08021997 -0.22706562 0.05486196 0.1024502
000370 d3 93 81 bd 73 92 19 3d 75 00 4e 3d 85 fe 08 3e
       -0.06327023 0.03749318 0.050293405 0.13378341
000380 87 45 94 3d 69 c1 be 3b e5 a5 af 3d e1 56 ae 3d
       0.07239824 0.005821396 0.08576564 0.085126646
000390 22 d5 f5 bd 68 f6 6d bd c6 ea b3 3e 6c 6f 4c be
       -0.120035425 -0.05809632 0.35140055 -0.19964379
0003a0 db dc b7 3d cc c0 35 bd cb fa 2d bd 01 26 28 bf
       0.08977672 -0.04437332 -0.042475503 -0.6568299
0003b0 52 4e 04 bf 88 62 16 3f b0 08 91 bd 85 56 68 3e
       -0.5168201 0.58744097 -0.07081735 0.22689255
0003c0 81 34 15 3d 6f c5 cb bd ab c1 a4 bc f6 04 6b bd
       0.036427025 -0.09949767 -0.02011188 -0.057377778
0003d0 9c e8 d4 bd 3d be c9 bd 62 06 6f 3d f1 68 a1 3e
       -0.10395929 -0.09850738 0.058355696 0.31525376
0003e0 c3 36 1e bf e5 fd 71 3e c7 60 96 bd 2a 99 39 bd
       -0.6180231 0.2363201 -0.073426776 -0.045312084
0003f0 bc ea d3 bc fc ba 61 bb 3a 9b 06 3d 5d a3 41 bc
       -0.025868766 -0.0034443727 0.03286288 -0.011818734

fcs1.bias f4 [128]
000000 e8 d4 e6 3c 7e 60 4e be 83 ad b9 bd 56 4b 98 3d
       0.028177693 -0.20153996 -0.09066298 0.07436244
000010 9e e4 85 bd f3 d2 8b be d2 f7 1f be c4 29 1b bc
       -0.06537746 -0.2730938 -0.1562188 -0.009470407
000020 a6 80 47 3d 7f 91 4f 3d 6d 10 73 be e4 cf c2 be
       0.048706673 0.050675865 -0.23736735 -0.38049233
000030 f4 d1 4f be 31 3c 25 3e a2 e3 4b bd 1d e9 cd bd
       -0.20294935 0.16136242 -0.049777634 -0.100542285
000040 b1 52 25 be db 09 bc bc c0 57 30 be 66 f8 b6 3d
       -0.16144826 -0.022953918 -0.17220974 0.08934097
000050 a0 78 49 be 87 63 ba 3d 60 57 39 be 9e db 95 be
       -0.19674921 0.091010146 -0.18099737 -0.29269117
000060 38 00 ef bd 4f 33 89 3d 00 fe 5b bd 2f d0 bb bd
       -0.116699636 0.066992395 -0.05370903 -0.09170567
000070 e4 a0 9c be f9 94 4d be db 61 6c be 30 a5 93 be
       -0.305915 -0.2007636 -0.23084204 -0.28836966
000080 43 d9 9b bd 7c 35 00 bf 3f dc 2e be df b2 26 bd
       -0.07609799 -0.5008161 -0.17076205 -0.04069793
000090 02 f1 6a be df d5 6c bd a2 72 06 be ff 79 41 3e
       -0.229435 -0.05782115 -0.13129666 0.18894194
0000a0 1e 61 d5 bd 52 1f 8e be 5c ae 89 be e0 45 af bd
       -0.10418914 -0.2775827 -0.26890838 -0.085582495
0000b0 ea 7f 36 be 56 6f 9a be af 12 84 be b0 88 8d be
       -0.17822233 -0.30163068 -0.25795504 -0.27643347
0000c0 ba 43 4b bd 33 e7 cf 3d 56 af 7d be 3a 96 a8 be
       -0.049625136 0.101515196 -0.24773917 -0.32927114
0000d0 0e fa 0e bd d2 bd 9f be 66 32 fe 3d 6a 10 ab bd
       -0.03490644 -0.3119951 0.124119565 -0.0835274
0000e0 f2 e1 a1 be 98 ef 5d be fb a3 b3 be da 54 43 3d
       -0.31617695 -0.21673429 -0.35086045 0.047688343
0000f0 19 07 02 be 5c dc 77 be e4 2f 9e be 74 27 04 be
       -0.1269802 -0.24205154 -0.30895913 -0.12905675
000100 3a b6 03 be 82 3d ae be ac 96 3c be 85 a6 58 be
       -0.12862483 -0.34031302 -0.18416852 -0.21157272
000110 e7 4d 18 be 0f a1 50 3e 52 b2 30 be 09 ec 31 be
       -0.14873467 0.20373939 -0.17255524 -0.17375197
000120 e8 44 86 3c b1 77 97 3e ea 28 a0 3d dc 97 a6 bd
       0.016390279 0.29583505 0.07820304 -0.081344336
000130 fa 45 04 be 9b 2d cf be fb 31 63 be c2 ef 29 3e
       -0.12917319 -0.40464482 -0.22187035 0.16595367
000140 b7 0b da 3d 81 8a 30 be 3c bb 35 be 32 e1 91 bd
       0.10646766 -0.17240335 -0.17747205 -0.07123031
000150 72 33 76 bd d5 eb b1 be 70 23 9b be 9e c8 c8 bd
       -0.060107656 -0.34750238 -0.30300474 -0.0980389
000160 d0 b9 8f be b9 53 39 be 81 4e 88 3e 19 e8 16 3d
       -0.2807145 -0.18098344 0.26622394 0.03684244
000170 b5 60 2f be 29 cd d7 3d df 26 b4 be 7f c8 6b 3d
       -0.17126735 0.10537178 -0.35185906 0.057564255
000180 41 ed 8e bc ea 4c 28 bd 30 82 c0 bd f1 97 3a be
       -0.017447116 -0.041088976 -0.09399831 -0.18222024
000190 3d 96 6d 3e f1 dc ef 3b b6 23 8d 3d 07 81 18 be
       0.23201843 0.0073200394 0.06891577 -0.1489297
0001a0 30 45 82 be ad 46 26 bd 36 18 01 be 6c c7 1f 3e
       -0.2544341 -0.040594745 -0.12606892 0.15603417
0001b0 a2 d9 99 be 8f 6a 0a 3e aa 2e 3b be e8 90 f0 3e
       -0.30048853 0.13517211 -0.1827952 0.46985555
0001c0 2f a1 c4 be 18 24 95 3b 2a ce 36 be 3f fb b9 be
       -0.38404223 0.004551422 -0.17852083 -0.36324498
0001d0 ac 0b 42 3d 6a 8e ad 3c 4b 51 ce bc d2 83 02 bf
       0.047374412 0.021186072 -0.025185248 -0.5098239
0001e0 08 2a 7c 3d 63 77 fb bd c5 49 04 3d 01 0a bd be
       0.06156352 -0.122786306 0.032296915 -0.36921695
0001f0 a6 9c 4c 3d 4e f2 ae bd 17 16 4f bd ba de 42 be
       0.04995408 -0.0854231 -0.050558176 -0.19030276

bn1.weight f4 [128]
000000 6d bd 20 3e e9 c2 77 3e 5b f7 a4 3e 00 5d e5 3e
       0.1569726 0.24195446 0.32219967 0.44797516
000010 a4 37 98 3e 15 5e b2 3e 93 00 72 3e 5e e3 b1 3e
       0.2972995 0.34837404 0.23633032 0.3474378
000020 5e 8f d5 3e eb 56 bd 3e a3 4a 83 3f 1e 50 1d 3f
       0.41710943 0.36980376 1.0257152 0.61450374
000030 10 b8 9d 3f 48 41 ee 3e 6e 55 9f 3e 46 de 18 3f
       1.2321796 0.4653418 0.31119865 0.5971416
000040 29 5a a4 3e 71 6b 84 3e 82 e1 4c 3e 0c 49 74 3e
       0.32100037 0.2586322 0.200079 0.2385599
000050 68 eb 05 3f 2f da 61 3e 7a 30 c3 3e 91 b6 d7 3e
       0.52312326 0.22055887 0.38122922 0.42131475
000060 3d ce ea 3e d1 98 eb 3e 65 82 1a 3f 9a 8b 8f 3e
       0.45860472 0.46015027 0.60355216 0.28036195
000070 ee 7f 01 3f c6 3d 20 3f cc 16 cf 3e 74 9e 3c 3f
       0.5058583 0.6259426 0.4044708 0.7367928
000080 99 45 e1 3e 2b f9 64 3e 6e 67 b4 3e 24 21 e9 3e
       0.4399841 0.22360675 0.3523516 0.45533097
000090 be cb ed 3e b7 73 7e 3e 21 7f 89 3f 3e a0 b5 3e
       0.46444505 0.24848829 1.0741922 0.35473818
0000a0 06 4e e5 3e 67 14 e9 3e ec 36 cb 3e e2 45 bc 3e
       0.4478609 0.45523378 0.3969034 0.36772066
0000b0 bf 14 26 3f 3b 2f e9 3e 52 02 c6 3e 29 15 fd 3e
       0.64875406 0.45543846 0.38673645 0.49430206
0000c0 41 cb ff 3e 9e 3e b4 3e d4 19 ec 3e 3e 95 08 3f
       0.49959758 0.35204023 0.46113455 0.53352726
0000d0 8d c2 f8 3e 9d 80 b1 3e cb dd d3 3e e5 ba 93 3e
       0.4858593 0.34668437 0.41380152 0.28853527
0000e0 ed 7d 09 3f 36 22 c6 3e a1 e9 01 3f bb 12 d4 3e
       0.5370777 0.38697976 0.50747114 0.4142054
0000f0 30 72 25 3f fc 50 cb 3e 27 bf 10 3f a5 bf 78 3e
       0.6462736 0.39710224 0.56541675 0.24291857
000100 57 27 ea 3e 7f 6f fd 3e a4 d1 cd 3e 21 a8 3b 3f
       0.4573314 0.49499127 0.40199006 0.7330342
000110 1d d4 52 3f 1c 1e df 3e ac 47 dc 3e 47 fc 3c 3e
       0.8235491 0.4357766 0.4302343 0.18455611
000120 d7 7c ca 3e 27 ca a5 3e d5 c9 9d 3e 78 1f bd 3e
       0.3954837 0.32380792 0.30818048 0.3693807
000130 f2 ac fa 3e 97 a3 26 3f de d0 13 3f ef 66 1c 3f
       0.48960072 0.6509337 0.5774058 0.61094564
000140 ef 3c 1e 3f bf 8a b1 3e b1 11 0f 3f 00 56 fb 3e
       0.6181173 0.34676167 0.5588637 0.4908905
000150 b2 8d e4 3e bf e6 8b 3e ae 5b 02 3f 70 95 1c 3f
       0.44639355 0.27324483 0.5092114 0.61165524
000160 f5 18 59 3f cc 50 ad 3e 6a f7 07 3f 9d 33 b2 3e
       0.84803706 0.33850706 0.531119 0.34805003
000170 9c 67 c5 3e 76 23 f3 3e b5 7a a1 3e 2e d7 c2 3e
       0.3855561 0.47487992 0.3153893 0.38054794
000180 ad 3f 6c 3e 24 82 b0 3e 9a 62 1a 3f 8e 88 54 3f
       0.23071165 0.3447429 0.60306704 0.83020866
000190 12 15 cd 3e c4 f6 06 3f ce d0 20 3f de d9 0b 3f
       0.40055138 0.52720284 0.6281861 0.54629314
0001a0 58 5e df 3e 10 ba 9a 3e 61 b9 bb 3d ab 71 27 3f
       0.43626666 0.3022008 0.091662176 0.6540782
0001b0 13 f6 1d 3f 18 3e bb 3e 19 66 e3 3e f5 be 6f 3e
       0.61703604 0.3657081 0.44413832 0.23412688
0001c0 a0 c6 ad 3e ab 3a e0 3e 80 36 af 3e 72 6d d9 3e
       0.339406 0.4379476 0.34221268 0.42466313
0001d0 d9 85 04 3f 47 f4 0b 3f 10 11 5f 3f ad d5 a8 3e
       0.51766735 0.5466961 0.8713541 0.32975522
0001e0 8d 04 c8 3e 07 76 54 3f c6 8f d5 3e da 76 28 3f
       0.39065972 0.82992595 0.41711253 0.65806353
0001f0 7d a2 00 3f a8 35 f0 3e 1a 29 ff 3e f9 28 c7 3e
       0.5024794 0.46915936 0.49836046 0.38898447

bn1.bias f4 [128]
000000 fa a8 ad be 1d 35 57 3d f5 50 99 be dd a7 04 3e
       -0.3391798 0.052540887 -0.29944578 0.1295466
000010 c1 38 24 3d 93 9c 90 3d d4 13 cb be 84 62 89 bd
       0.040093187 0.07061114 -0.39663565 -0.067082435
000020 03 43 12 3e 0f 41 72 3e c4 58 8b 3c 71 24 b0 3e
       0.14283375 0.2365763 0.0170101 0.34402803
000030 37 b8 f2 ba 0a 13 7a bd 11 e9 da 3c 72 f2 2c 3e
       -0.0018518035 -0.061053313 0.026722463 0.1688936
000040 8a 91 69 3c d9 31 32 3c 06 67 ab bc 62 cd bc 3d
       0.014255891 0.010876142 -0.020923149 0.09218861
000050 ef 23 8d be d1 5b 9a 3c 35 a1 a5 bb 1c 56 ab 3e
       -0.27566478 0.01884261 -0.0050546178 0.33464134
000060 42 ea c4 3d 74 74 04 bd 47 b2 1c 3e fc 03 ff bd
       0.09614994 -0.03233762 0.15302382 -0.12451932
000070 29 a1 79 3e ac 05 7a bd fb 99 83 3b ce ff 0b 3e
       0.24377884 -0.061040565 0.0040161586 0.136718
000080 20 9d 2b bd 32 71 71 3e 57 3b 71 bb 05 d4 80 bb
       -0.041897893 0.23578337 -0.003680905 -0.0039315247
000090 58 52 96 3e 05 4c f2 3d 71 ac f7 3d c0 7a 1e bd
       0.29359698 0.11830906 0.120934375 -0.038691282
0000a0 23 49 0e bd f3 39 5d 3e 77 7d bf be e4 b1 0d 3e
       -0.034737717 0.21604137 -0.3740041 0.13837391
0000b0 78 c0 94 3e 38 32 d9 3e 64 02 32 3e aa a9 5b 3e
       0.29053092 0.42421126 0.17383724 0.2145144
0000c0 ef ad 2a be c3 91 5c bd e0 de 00 3e 62 8f 43 3e
       -0.16667913 -0.053849947 0.1258502 0.19097665
0000d0 26 4a 1a 3e 2e ab 9f 3d b5 37 02 3e 07 27 db 3c
       0.15067348 0.07796322 0.12716563 0.026752008
0000e0 00 ad 5e bd f8 72 31 3d 4f ef e8 bc e4 38 88 bb
       -0.054364204 0.043322533 -0.028434424 -0.0041571725
0000f0 da d4 0b 3e 68 e1 91 3e a5 44 5c bd fc b2 15 3d
       0.13655415 0.28492284 -0.053776402 0.036547646
000100 5b 5d c9 bb 56 5a ac 3e bc 91 ce bd 9e 49 c0 3d
       -0.006145162 0.3366267 -0.100863904 0.09389041
000110 47 8e 5a 3d 61 2e c4 3d 43 67 b9 3e ff 7f f6 bd
       0.053358342 0.095791586 0.36211595 -0.12036132
000120 78 69 3f 3c 1a 36 cf bd 44 2e ba 3e 0a 26 21 bd
       0.011682861 -0.10117741 0.36363423 -0.039342918
000130 52 e4 37 3e 61 d6 f6 3d 74 55 4c 3e 36 41 f4 3d
       0.17958191 0.12052608 0.19954473 0.119265005
000140 95 ac 9c 3c 18 7d 14 bd 09 96 9d 3e 16 4b 6a bc
       0.019125262 -0.03625211 0.3077853 -0.014300128
000150 9c dc 02 bd 9f 9e 31 3e 10 65 6d bd 5c a4 c8 bd
       -0.03194867 0.17345665 -0.05795771 -0.09796974
000160 9a cd 23 3d 1d 3d ff bd 7f a0 84 be 65 3c 4f be
       0.039991 -0.12462828 -0.259037 -0.20237882
000170 d4 58 64 bd bb c4 db bd 6f bd 33 bb b0 e8 fe 3c
       -0.055748776 -0.10730883 -0.0027426144 0.031116813
000180 c3 04 e1 3d dc a0 5d be cc ac 22 be 5c ae 83 3e
       0.10987236 -0.21643394 -0.1588623 0.25718963
000190 14 83 3f be 22 0a 52 3d 2d 46 23 3c 57 33 12 3e
       -0.18702346 0.051279195 0.009965462 0.14277397
0001a0 4d c6 21 3e 49 a1 08 bd b3 b0 f2 be 75 22 73 3d
       0.15798302 -0.03335694 -0.47400436 0.059359033
0001b0 05 1a 5d 3e 9f 37 0d 3e 2b a9 17 3e 0e 66 93 be
       0.21591957 0.13790749 0.14810626 -0.287888
0001c0 16 be cc bc ae 31 09 3e 92 e5 07 bd 5b b2 18 3e
       -0.024992984 0.13397858 -0.03317792 0.14911787
0001d0 91 ae 64 3c f0 39 a0 bd bd a1 45 3e 7a 9a 91 3e
       0.0139576355 -0.07823551 0.1929998 0.2843817
0001e0 f6 7b 95 be ee 2a d5 3d 36 05 e2 bd c2 59 cd 3e
       -0.29196137 0.10408579 -0.1103615 0.40107542
0001f0 4e 33 ff 3c 5e dc 72 be 84 be 18 3d ec 2b df 3c
       0.031152394 -0.23716876 0.037291065 0.027242623

bn1.running_mean f4 [128]
000000 a9 23 c0 3d 71 ff 25 3d c7 2e 64 3d d9 aa c7 3e
       0.09381802 0.04052681 0.055708673 0.38997534
000010 5e de d8 3e 72 a1 82 3e 07 96 be 3e af b5 ab 3e
       0.42357153 0.25513798 0.37223837 0.3353705
000020 6c d7 18 3f 00 58 1b 3f 24 1f 88 3e d3 35 89 3e
       0.5970371 0.6068115 0.26586258 0.26798877
000030 84 5e c6 3e df 75 2e 3e b8 1c 36 3e 1a 76 ce 3e
       0.38743985 0.17037152 0.17784393 0.4032448
000040 8b 25 c8 3e 58 aa 20 3d ad c9 e0 3c 5c 83 e7 3e
       0.39091143 0.039224952 0.027439917 0.45217407
000050 a5 4f c0 3e 14 48 c4 3d 65 83 24 3e 3a d0 e5 3d
       0.37560764 0.0958406 0.16065748 0.11221357
000060 3b f4 13 3f d3 31 3a 3d c3 94 2a 3d d8 2f 83 3d
       0.5779454 0.045457672 0.041645776 0.0640561
000070 43 07 1a 3e cd 13 17 3e e3 6e cb 3d 13 15 3d 3e
       0.15041833 0.14753647 0.09933259 0.1846507
000080 52 a2 52 3d 5d 3d d9 3c 27 3f 7b 3f 8b 07 af 3e
       0.051424332 0.026518518 0.9814324 0.34185442
000090 4a 52 e7 3e 7b dc 36 3c 35 ab 4f 3e a8 0b 82 3e
       0.4517997 0.011160965 0.20280154 0.25399518
0000a0 d6 7a e8 3d 84 eb bd 3d 0d cc 3a 3d 52 03 b9 3d
       0.11351554 0.09273437 0.045604754 0.090338364
0000b0 83 7a ec 3d c5 9f eb 3e 5d c5 75 3e a4 b7 88 3d
       0.11546805 0.46020332 0.2400107 0.06675652
0000c0 19 fe 02 3f 40 e3 85 3e a9 b2 cd 3e 01 47 cc 3d
       0.5116897 0.2614994 0.4017537 0.099744804
0000d0 b5 13 01 3e 3e a2 01 3e 8d 06 47 3f fa 1f 2d 3d
       0.12605174 0.12659547 0.7774437 0.042266823
0000e0 19 91 b5 3d 6c bb 75 3e b2 83 20 3e 75 f4 9d 3e
       0.08865566 0.23997277 0.15675238 0.30850568
0000f0 91 97 94 3e 19 d9 ef 3e cd 80 01 3e 64 be 5a 3d
       0.29021886 0.4684532 0.1264679 0.053404227
000100 57 2e 40 3e cb ca 0f 3e f4 e4 b4 3d 77 b0 6c 3d
       0.18767677 0.14042203 0.08832732 0.057785477
000110 fd a0 99 3e e9 01 99 3e 56 00 85 3e d0 4f 8d 3d
       0.30005637 0.2988427 0.2597682 0.06899989
000120 3c af 0e 3f 43 d1 4f 3e ad fe 6b 3f f2 91 bc 3d
       0.55736136 0.20294671 0.9218548 0.09207524
000130 38 b4 ec 3d 63 3e b1 3d dd 81 48 3e 45 a0 bc 3e
       0.115578115 0.086544774 0.19580789 0.36841026
000140 ab 3b 54 3f b0 ec 03 3e c3 e0 24 3f 96 8d af 3e
       0.82903546 0.12883258 0.6440546 0.3428771
000150 3d 77 84 3d 9e c8 84 3e 25 e1 84 3e 0d 60 8f 3e
       0.064680554 0.2593431 0.25953022 0.28002968
000160 cb 93 0e 3e f6 40 7c 3c c3 26 3f 3f ea 89 a1 3e
       0.13923566 0.015396347 0.7466852 0.31550533
000170 ff ac 8d 3d 89 b2 ad 3e 6d 79 8f 3d 89 20 df 3e
       0.06917762 0.33925274 0.07005582 0.4357951
000180 c0 82 81 3f 7b a6 70 3e d1 d9 93 3e a4 dd 36 3e
       1.0118027 0.23501007 0.28877118 0.17857987
000190 cb 98 53 3e d1 64 25 3e 26 59 a5 3d 1e 30 58 3e
       0.20663755 0.1615174 0.08073644 0.21112105
0001a0 70 c0 14 3e 72 fa 8c 3d 46 a8 97 3e 51 66 1f 3f
       0.14526534 0.06883706 0.2962057 0.622655
0001b0 3a 98 00 3f 45 7f 6a 3e 59 43 a1 3e ba 16 6c 3f
       0.5023228 0.22900112 0.31496695 0.9222218
0001c0 b6 b9 81 3d 5b ac 26 3e 47 be f5 3d 20 cd 11 3e
       0.0633425 0.16276686 0.11999183 0.14238405
0001d0 1e 3c 95 3e e1 64 86 3e ea 88 a3 3e 81 55 c2 3d
       0.29147428 0.2624884 0.31940395 0.09488965
0001e0 19 ee 2d 3f 17 76 86 3e 34 59 8d 3d 0e 69 4b 3e
       0.67941433 0.2626197 0.0690178 0.19864294
0001f0 bf 1e a3 3e 2d 7c a8 3e bc 4e 96 3e 01 28 37 3e
       0.31859395 0.3290724 0.29356945 0.17886354

bn1.running_var f4 [128]
000000 9e 4c 3b 3d 0b f7 c2 3c 3b aa 04 3d ce c5 59 3e
       0.045727365 0.02379944 0.032388907 0.21266863
000010 9b 9d 18 3e 76 26 64 3e 42 8e 90 3e 2d 75 77 3e
       0.14903872 0.22280297 0.28233534 0.24165793
000020 b4 fa 53 3e b6 61 0b 3f bb 07 46 3e 05 b4 1c 3e
       0.20701104 0.5444597 0.19338886 0.15303047
000030 a9 9e a6 3e 73 cd 02 3e 8c a6 ee 3d cf 64 74 3e
       0.32542923 0.12773685 0.1165286 0.2386658
000040 61 1f 2b 3e b4 99 ec 3c e0 f4 60 3c d9 a0 11 3f
       0.16711189 0.028881885 0.013730258 0.5688606
000050 65 ec 62 3e cc 07 8a 3d 64 7e 24 3e bc b0 8e 3d
       0.2216049 0.067397684 0.16063839 0.06967303
000060 7b 27 21 3e d4 3b 01 3d 48 04 f0 3c 7d c3 21 3d
       0.15737717 0.031551197 0.029298916 0.039493073
000070 4b 7c cd 3d d6 22 ce 3d 7e a5 86 3d 10 a2 f8 3d
       0.100334726 0.10065238 0.06574534 0.12140286
000080 8e a9 18 3d 43 a6 5d 3c fe 8b b6 3e 29 79 60 3e
       0.037271075 0.013528409 0.3565368 0.21921219
000090 4e 31 6e 3e 4f 0d 9d 3b d1 2e 2f 3e 39 54 3a 3e
       0.23260996 0.0047928463 0.17107703 0.18196191
0000a0 e7 f7 93 3d f7 f9 3e 3d 45 5a 05 3d f7 2d 87 3d
       0.07225018 0.046625104 0.03255679 0.06600564
0000b0 40 3f a5 3d 6b 14 f6 3e 22 f6 35 3e 09 5b 41 3d
       0.080687046 0.48062453 0.17769673 0.04720596
0000c0 1e 11 f4 3e b9 e3 20 3e 2a 7f 96 3e 18 05 ac 3d
       0.4766931 0.1571187 0.29393893 0.08399409
0000d0 a9 f3 a6 3d be df 98 3d cb 79 61 3f 06 d8 c4 3c
       0.08151943 0.074645504 0.88076466 0.02402879
0000e0 27 73 47 3d a8 05 1c 3e 2e 16 e8 3d a1 1a e8 3d
       0.048693802 0.15236533 0.113323554 0.11333204
0000f0 84 21 52 3e b5 0d d5 3e 03 a8 da 3d e6 be 58 3d
       0.20520598 0.4161202 0.10676577 0.05291643
000100 23 0a 33 3e 0f af e6 3d 04 13 74 3d 72 0e 03 3d
       0.17484336 0.112638585 0.059588447 0.031996198
000110 bf 73 79 3e 5f eb 3a 3e 01 b2 22 3e 36 72 2b 3d
       0.2436056 0.1825385 0.15888216 0.041856967
000120 3f ba 80 3e 8c 27 2a 3e ab 2d 01 3f c9 c4 94 3d
       0.25142094 0.16616648 0.5046031 0.07264096
000130 e0 df 99 3d a8 ba 55 3d 4f 8b b9 3d f4 eb 67 3e
       0.07513404 0.052179962 0.09059774 0.22648603
000140 83 af 75 3f ae fa 52 3d 8c 3e 7b 3e de 08 5f 3e
       0.95970935 0.051508598 0.24535578 0.21780726
000150 a7 e2 0b 3d 70 b5 80 3e 46 6b 6d 3e f8 9b 56 3e
       0.0341517 0.25138426 0.23185453 0.20957935
000160 04 c9 d8 3d b7 30 1e 3c 78 3f 19 3f 6c 82 40 3e
       0.10585216 0.009655169 0.5986247 0.18799752
000170 db 97 2d 3d 11 ca 2a 3e 69 3f 27 3d 41 94 6b 3e
       0.04238115 0.16678645 0.040831957 0.23005773
000180 18 77 dd 3e a6 6f be 3d 99 ac 0d 3e 11 dd 0d 3e
       0.43254924 0.09298639 0.13835372 0.13853861
000190 20 41 28 3e 7f ca e0 3d 76 cb 38 3d 96 33 b6 3d
       0.16431093 0.10976123 0.04511591 0.08896558
0001a0 01 13 f6 3d 9e c0 1d 3d 1b 86 32 3e e5 b4 26 3f
       0.120153435 0.038513772 0.1743397 0.65119773
0001b0 39 8e 17 3e 24 65 20 3e b0 25 5c 3e 88 f8 11 3f
       0.14800347 0.15663582 0.21498752 0.57019854
0001c0 3c 07 7b 3d 2e 7b d0 3d a6 44 8b 3d 90 aa d7 3d
       0.061286196 0.10179745 0.06800203 0.10530579
0001d0 a6 21 26 3e 20 e7 22 3e 70 1a 84 3e 4e fb 92 3d
       0.16223773 0.1590848 0.2580142 0.07176839
0001e0 ef 8a 0a 3f d7 53 71 3e fc 27 5e 3d 09 6e 08 3e
       0.54118246 0.23567139 0.05423735 0.13323225
0001f0 0b e3 87 3e 20 fe 81 3e 98 a7 20 3e 7b d7 cc 3d
       0.26540408 0.25389194 0.15688932 0.10002037

fc2.weight f4 [128, 132]
000000 7b 11 c1 bd 7c f9 3b be d8 6e 5b 3d 92 6c 41 3d
       -0.09427162 -0.1835689 0.053572506 0.04722268
000010 c6 69 91 bd f2 6c f7 bd 90 24 3d 3e a5 b5 6c bd
       -0.07100253 -0.120813265 0.18470979 -0.057790417
000020 9b a8 55 3e ba 1c 7b bd b7 be c2 bd 46 40 ba bd
       0.20865099 -0.061306693 -0.09509032 -0.090942904
000030 b4 d8 a5 be 9b 0b 6b 3d a1 46 b7 3d 94 8c 09 be
       -0.32391894 0.057384115 0.08949018 -0.13432533
000040 9e db 89 be b9 48 2e 3d 44 d8 98 be d9 06 b2 3d
       -0.26925367 0.042549822 -0.29852498 0.08692712
000050 ce ab c3 3d af 9e b6 3b 67 2b 12 bc fe 6d 50 bd
       0.095542535 0.005573116 -0.008921481 -0.050886147
000060 18 f4 f0 3c c2 9a f6 3d 05 23 5e be c8 08 e9 3d
       0.029413268 0.120412365 -0.21693046 0.11378628
000070 f9 ed 77 bd 3c 92 47 be c9 59 42 3e 1c 77 be be
       -0.060529683 -0.19489378 0.18979563 -0.37200248
000080 52 8c 34 be 7b 6a 60 bd 96 6c 79 bc e1 54 18 bd
       -0.17631653 -0.054789048 -0.015223643 -0.03719032
000090 25 8c 66 be e9 dc 0a bd 62 6d 64 be dd 66 90 3d
       -0.22514398 -0.033902083 -0.22307351 0.070508696
0000a0 66 05 61 3e d8 ae e7 3c 9f 48 11 be 5e a3 23 3e
       0.21974716 0.028281614 -0.14187859 0.15980288
0000b0 4e c0 27 be 91 6c 1c bd f3 2d 12 bd e1 bf e8 bd
       -0.16381952 -0.038189474 -0.03568835 -0.11364723
0000c0 63 3e 04 be e4 7a 7c bd b5 55 b0 bd 81 65 93 3d
       -0.12914424 -0.061640635 -0.08610097 0.07197095
0000d0 54 41 83 3c de 2b 88 be d3 c6 1b be f4 f0 e9 bd
       0.016022362 -0.26595968 -0.15212564 -0.11422911
0000e0 ce fc c6 3d ce f9 41 be a9 f2 61 bd 8c 55 dd bd
       0.097161874 -0.18942949 -0.05516306 -0.108073324
0000f0 13 04 01 3e a1 f9 2a 3d 0b 03 e4 bb 41 75 45 3d
       0.1259921 0.04174197 -0.0069583706 0.048207525
000100 34 2a ee bc 8f e8 81 be 9d 5c 19 3c 3a 43 17 be
       -0.029072858 -0.2537274 0.00936046 -0.14771739
000110 3c 4b d8 be 00 68 b6 3d b8 ee e8 3d 8c a3 01 3e
       -0.422449 0.08906555 0.11373657 0.12660044
000120 49 2a a0 3d 6e 4d 49 be 83 52 87 bc 94 6d 1c bc
       0.07820565 -0.19658443 -0.016518837 -0.00954761
000130 8e f2 80 be 34 b9 f5 bd a9 c2 e3 3d cf 3d 7b bd
       -0.25185055 -0.11998215 0.11121113 -0.061338242
000140 db 21 d5 3c fa a5 5a 3d a5 a4 25 be 66 48 33 3e
       0.02601712 0.053380944 -0.16176088 0.17508087
000150 e2 37 a7 3e 90 ef 2c 3e d6 19 0c 3e 91 67 1b be
       0.32659823 0.16888261 0.1368173 -0.15176226
000160 3e f4 62 be 0c ac ca be 5e a6 14 3d c7 50 de bc
       -0.22163484 -0.39584386 0.036291473 -0.027138127
000170 7a b3 e9 3d 02 2b e5 bc 43 3c 1e bc f9 c4 4a 3d
       0.114111856 -0.02797461 -0.009657922 0.049504254
000180 02 31 8d bd d8 d4 67 be 6f d8 42 3d df 89 11 bf
       -0.06894113 -0.22639787 0.04756969 -0.56851
000190 83 2b bb 3a 0f 95 ac be d3 ed 20 3d 13 8f f7 bc
       0.0014279935 -0.33707473 0.039289307 -0.03021959
0001a0 65 44 20 be ea eb 47 3d 54 a4 1b 3e 19 de a2 bc
       -0.1565109 0.04880897 0.15199405 -0.019881295
0001b0 10 20 64 bd 46 63 4b bd 61 3f 54 be 43 31 95 3c
       -0.05569464 -0.04965522 -0.20727302 0.018211966
0001c0 68 b1 d0 bd 57 8c 69 3b 5b a5 55 3d db 15 02 be
       -0.101900876 0.0035636628 0.05215965 -0.1270365
0001d0 a0 83 57 3d a2 70 9b bc 2b b1 88 bd 94 d0 4a be
       0.05261576 -0.018974606 -0.06674417 -0.19806129
0001e0 6c 8d b8 bc 28 a7 75 be 39 27 88 3d 2a 64 f8 bd
       -0.022528373 -0.23989546 0.06648106 -0.1212848
0001f0 d2 f8 4c 3d ae e4 c1 bd b4 ec 2f 3e 32 73 18 be
       0.05004198 -0.09467445 0.17180139 -0.14887694
000200 77 d3 bf 3b f5 53 c2 3c f4 39 60 3d 77 05 05 bd
       0.005854066 0.023721674 0.05474277 -0.032475915
000210 e2 f0 ad bc b0 84 96 be 28 33 9a 3d 2d 61 bc 3d
       -0.021233026 -0.29398108 0.075292885 0.09198222
000220 5b f7 36 3c 26 18 10 3e 3f 82 7c 3d 98 8c 5f be
       0.011167373 0.14071712 0.06164765 -0.21830976
000230 a9 b3 5b be 23 35 6b 3e 92 53 9c bd 31 59 2f be
       -0.21455254 0.22969489 -0.07633127 -0.17123868
000240 32 87 ff bd 2a c3 2c bc 69 db 1b 3d 89 bc f9 bd
       -0.12476958 -0.010544578 0.038051043 -0.12194163
000250 0a 94 a2 3c 21 1f 81 3d 3c 06 b7 bc 21 f6 6a 3d
       0.019845981 0.063047655 -0.02234184 0.057363633
000260 4b 2e 38 be 12 46 8a 3d e8 f2 fa bd 3e 2b f0 bd
       -0.1798641 0.06751646 -0.12253362 -0.11726998
000270 92 a6 5c 3e bc fa a1 3d 19 83 aa bb 24 db ca bd
       0.21547917 0.07909152 -0.0052036163 -0.09905079
000280 d4 a7 f7 3d fd 5d 99 be 92 44 f7 bc b8 24 93 bc
       0.120925575 -0.2995452 -0.030184064 -0.017961845
000290 ed da c5 3d c4 48 cf be 84 79 8a 3e e7 49 7a be
       0.096608974 -0.40485203 0.27045834 -0.24442254
0002a0 8d 0c 0a 3d e9 a8 46 be 1e ea 04 3d 00 da d2 bd
       0.033703376 -0.19400372 0.032449834 -0.102954865
0002b0 02 cb b4 3d 39 00 83 be 59 bc d7 3d 99 c9 15 3e
       0.08827783 -0.25586107 0.10533971 0.14627685
0002c0 94 06 9d bd 07 40 32 be db e3 3c 3d ec 89 15 3e
       -0.0766727 -0.17407237 0.046115737 0.14603394
0002d0 11 15 35 3d 31 75 3d 3d 47 38 82 be a3 f9 25 3d
       0.044209544 0.04625434 -0.2543356 0.040521275
0002e0 58 31 06 3e f4 54 52 3d c6 c5 3f be 85 0e a8 3d
       0.1310476 0.05135055 -0.18727788 0.082058944
0002f0 95 6c ec 3a e7 d3 6b be 8e 44 e8 bd 17 3e 83 bd
       0.0018037731 -0.23030053 -0.11341201 -0.06408327
000300 46 52 b4 bd 6f 22 1d bf 5b 32 94 3d 9f ab 7a be
       -0.08804755 -0.61380666 0.07236167 -0.24479531
000310 8a d1 e8 bd 8b e6 8d bc 97 1d 50 ba b8 c0 0c be
       -0.113680914 -0.017321846 -0.00079389795 -0.13745391
000320 52 26 13 be a8 8e 91 bd 52 c1 9e be 36 40 b5 be
       -0.14370087 -0.07107288 -0.31006867 -0.35400552
000330 a0 cb 4c 3d 66 73 b6 3d 1b fa 94 be 47 65 3a bd
       0.04999888 0.08908729 -0.29097065 -0.04550674
000340 58 d0 57 bd 46 3e 9c be 4c 32 c0 bb 77 a8 9e bd
       -0.052688926 -0.3051626 -0.005865371 -0.07746976
000350 41 62 0f be 36 a2 3a be 5c ad 9a bd 94 ba c9 3c
       -0.14002325 -0.18225941 -0.07552597 0.0246251
000360 14 0c 35 3c 13 38 9b bc 8e 82 c0 3b ea f8 34 bd
       0.011050243 -0.018947637 0.0058749383 -0.044182695
000370 df d4 7c 3d 58 22 d5 be 6c f8 c6 be 0f 0f 95 3d
       0.061726447 -0.41627765 -0.38861406 0.07278263
000380 96 ba f8 3d a9 6a bd bc 35 d6 c2 bd 14 7f 1b 3e
       0.121449634 -0.023122149 -0.09513513 0.15185195
000390 49 98 01 3e 60 98 8b bc bb 70 36 be 3e 73 a1 3d
       0.12655748 -0.017040431 -0.17816441 0.07883309
0003a0 29 b7 0c be ca 52 28 3e c7 5b da bd 75 4d 76 3d
       -0.13741745 0.16437832 -0.106620364 0.060132463
0003b0 12 7c 87 ba 7a d2 f4 3d f4 0e 3a 3e a6 9a d1 bd
       -0.0010336658 0.11954208 0.18169767 -0.10234575
0003c0 e5 3a 13 bd ff c2 96 bd 06 86 a4 bd b9 4a af 3c
       -0.035944838 -0.07361411 -0.080333754 0.021397935
0003d0 98 6c 0b be a7 80 29 3e 7f fe 0f bd 7b ae 92 bd
       -0.13615644 0.16552983 -0.035154816 -0.07162186
0003e0 ee 2f 64 bd 6b 6d 01 bc a9 04 53 be 8d f9 b2 be
       -0.05570977 -0.007899622 -0.20607246 -0.34956017
0003f0 55 59 0f be 83 c6 19 be 9a f8 c0 3b c3 e1 c5 be
       -0.13998921 -0.15017132 0.0058890106 -0.38648805

fc2.bias f4 [128]
000000 56 cc 7e be 0e b2 a7 be 88 46 26 3e bd c4 39 be
       -0.24882635 -0.32753032 0.16237843 -0.18141456
000010 4a f9 03 bf dc f6 a0 be e8 e8 89 3e 7c 57 d6 bb
       -0.5155226 -0.3143834 0.26935506 -0.0065411907
000020 3b be 95 be 55 e3 a8 3e 8e a7 be 3c 23 bd 15 be
       -0.29246697 0.3298594 0.023273256 -0.14622931
000030 ab f1 b2 3e 45 55 01 3e 20 f5 a8 be 3e 3f 83 be
       0.34950003 0.12630184 -0.32999516 -0.25634187
000040 41 5f b8 be d8 1c e8 bb cb b2 4f be c8 e8 ef be
       -0.36010173 -0.0070835166 -0.20283048 -0.46857285
000050 d7 68 8c be ff f1 73 3e 0a 1f a0 be f3 12 96 be
       -0.27423736 0.23822783 -0.3127368 -0.29311332
000060 77 1c b7 be a2 f3 50 3d 26 ac 93 be ff ab 0c 3e
       -0.35763904 0.051013596 -0.28842276 0.13737486
000070 b1 58 0e 3e b6 1d 89 be d6 d9 3e 3e 4c 9c a5 bd
       0.1390102 -0.2678048 0.18637785 -0.08086452
000080 e8 5d c4 be fc da a5 be 2e 91 37 3d 13 81 3e be
       -0.38352895 -0.32393634 0.04481619 -0.18603925
000090 33 1b aa be c1 9f 9a be 22 a9 7b be 4f 8a 7b 3e
       -0.33223876 -0.30200008 -0.24576238 0.2456448
0000a0 bd 64 06 3f 3c cc ab 3e 7c 1a 09 be 7a ab f1 be
       0.52497464 0.33554256 -0.13389009 -0.4720114
0000b0 e3 63 6f 3e 6b a7 93 be 9c ef 0c 3e 4a 22 a6 be
       0.23377948 -0.28838667 0.13763279 -0.32448035
0000c0 cf d6 06 be e5 24 8c be 65 10 90 bd ef c6 c7 be
       -0.1316788 -0.27371898 -0.07034377 -0.39018962
0000d0 32 5d ac bd 8f 93 13 bd 6e 6c 00 3f cb 62 66 be
       -0.08416213 -0.036029395 0.5016545 -0.22498624
0000e0 21 e9 80 be d1 21 9c 3e 1e 41 d4 be 62 ba 07 be
       -0.25177863 0.3049455 -0.4145593 -0.13254693
0000f0 e8 f9 9c be c1 8d bb be 85 46 f7 be 0f 6d 8c be
       -0.30659413 -0.36631587 -0.4829599 -0.27426955
000100 e4 dd 9e be ef b2 14 be 5d a2 26 bd 4f e4 b5 be
       -0.31028664 -0.14521383 -0.040682185 -0.35525748
000110 cc 0c bc 3b 2a f0 8a be d6 9b 8b 3e 43 dc 27 3e
       0.00573883 -0.27136356 0.2726733 0.16392617
000120 a0 ec 90 be db 76 9e be f0 80 41 3e 6e ca ec 3d
       -0.2830553 -0.30950055 0.18896842 0.11562048
000130 f8 0b 5e be cb e2 72 3e 47 04 76 be 18 43 cd be
       -0.21684253 0.23719327 -0.24025069 -0.4009025
000140 5f bb 68 be 6d 86 92 be c1 1c 23 3e a7 53 38 be
       -0.22727726 -0.28618184 0.15928937 -0.18000661
000150 76 4d 07 3f ce 0f 89 be 0c 46 66 bc b1 09 71 be
       0.5285257 -0.2676987 -0.014054786 -0.23538853
000160 aa bb 54 be 39 67 13 3d e1 12 8d 3d 82 cc 23 be
       -0.20774713 0.035987113 0.068883665 -0.15995982
000170 f6 6c 42 be 4f 13 4a be 56 b8 d6 bd 14 d0 49 3d
       -0.18986878 -0.19733928 -0.10484378 0.049270704
000180 11 36 7f 3d c6 03 01 3e fc 8d 21 3e 38 7f 7f be
       0.06230742 0.12599096 0.15776819 -0.24950874
000190 fe 46 4e 3e 04 70 45 3c 8a 27 2b be 91 b2 57 be
       0.20144269 0.012050632 -0.16714302 -0.21064211
0001a0 03 af a8 3d fa e6 7c 3e 94 3c 27 3f 48 0b 80 be
       0.08236506 0.24697486 0.6532681 -0.25008607
0001b0 2d b4 2c 3f 7e 50 41 3d ad 79 6e be 38 c2 cd be
       0.67462426 0.047195904 -0.23288603 -0.4018724
0001c0 fb 3e f0 3e 3c 28 82 3e a9 85 42 3d 62 c7 c1 bc
       0.4692305 0.2542132 0.04749075 -0.023654643
0001d0 cb a4 a4 3e 69 5a 74 3e 61 06 0c 3e 75 65 65 be
       0.32156977 0.23862614 0.13674308 -0.22401984
0001e0 f2 97 97 be 11 f3 77 be 09 fa 45 3e 36 e8 c2 3e
       -0.29608113 -0.24213816 0.19333662 0.38067788
0001f0 6e f6 e6 3e b3 85 87 be c7 20 38 3e 39 a3 29 bd
       0.45109886 -0.26469192 0.17981254 -0.041415427

fc3.weight f4 [1, 128]
000000 48 44 24 be f4 12 7e be 3b c3 28 3e 0a 24 60 bd
       -0.16041672 -0.24811918 0.16480725 -0.05472187
000010 60 2c 13 be 07 06 05 be 99 0f a5 3d d8 9a 06 3e
       -0.14372396 -0.1299058 0.08059616 0.13145006
000020 b0 0d 60 be c8 e4 df 3d 31 0d 02 3e bb b2 fd 3d
       -0.21880221 0.109323084 0.12700345 0.12387606
000030 c6 4a ea 3d 16 35 b5 3d 9e 11 2f be a9 f8 86 3e
       0.11440043 0.08848016 -0.17096564 0.26361588
000040 1c 4d 72 be c1 e9 ab 3d 0d b9 2e be 79 ee c3 bd
       -0.23662227 0.083941944 -0.17062779 -0.095669694
000050 94 86 4e be df 17 e0 3d 44 b1 db bd 89 ab 1e be
       -0.20168525 0.10942053 -0.1072717 -0.15495123
000060 57 4f 03 be a2 55 07 3e 92 fa 31 be c3 76 a4 3d
       -0.12823234 0.1321626 -0.17380741 0.080304645
000070 47 62 b3 3d d3 5d 9c bd 33 e4 fb 3d 80 1c 31 3e
       0.08758979 -0.07635083 0.12299385 0.17296028
000080 70 9e e8 bd 39 d1 30 be 71 28 88 3d 12 ae cb bd
       -0.113583446 -0.17267312 0.066483386 -0.09945311
000090 c2 0b 2e be 1d e5 55 3e 85 f6 96 3e d3 42 04 3e
       -0.16996673 0.20888181 0.29484954 0.12916116
0000a0 06 3e 34 3e 46 86 0e 3e dc 01 08 3e bf 03 cf bd
       0.17601785 0.13918409 0.1328196 -0.101081364
0000b0 42 fa 36 3e 1b d3 5f be c7 82 ca 3d 9b d3 ad bd
       0.17868903 -0.21857874 0.09888225 -0.08487626
0000c0 27 73 76 3e 3a f3 c2 be 4e ee a7 3d 7a da 48 3e
       0.24067365 -0.38076192 0.0819975 0.19614592
0000d0 87 ad 20 3e f4 c7 f0 3d 6a 8a 11 3e ba ba 18 be
       0.15691195 0.11756888 0.14212957 -0.1491498
0000e0 e0 3f 7d be aa 4b d4 3d 6b 8f 3e be 7a 1d e1 bd
       -0.24731398 0.10365994 -0.18609397 -0.1099195
0000f0 40 c8 9c be 7e da cf bd e7 d2 d4 bd 00 a0 74 be
       -0.3062153 -0.10149096 -0.10391789 -0.2388916
000100 0b 28 0e be 38 a7 10 3e 01 23 1c 3e 1e ed 15 be
       -0.13882463 0.14126289 0.15247728 -0.14641234
000110 53 a8 14 3e 76 74 53 3e e7 ff d4 3d a5 25 16 3e
       0.14517336 0.20649895 0.10400372 0.14662798
000120 0f 96 4d be 59 46 b2 be 9c c1 c1 3d 43 c2 d0 3d
       -0.20076774 -0.34819296 0.09460756 0.101933025
000130 89 86 3c be 0b fb 19 3e fe de 28 be 9e 13 03 be
       -0.18410696 0.15037172 -0.16491315 -0.12800452
000140 9d 27 12 be f5 b4 95 bd b3 a9 db 3d eb a1 d3 bd
       -0.14272924 -0.073099054 0.10725727 -0.10333618
000150 78 53 11 3e 2b c9 2b be 30 e0 02 3e 42 e5 07 be
       0.14191997 -0.16775958 0.12780833 -0.13271049
000160 05 1d 2b be cf ba ef 3d 19 f6 2a 3e d6 dc 01 3e
       -0.16710289 0.11705553 0.16695441 0.12681898
000170 ea 67 6c bd 52 99 06 be bd 21 24 3e b8 60 a5 3d
       -0.057716288 -0.13144425 0.16028495 0.08075088
000180 bb 00 1e 3e 2a 49 b9 3d 79 3c 16 3e 00 3f 0d be
       0.15429966 0.09047158 0.14671506 -0.13793564
000190 2f 76 ce 3d ec d2 0a 3e 65 95 e7 bd 7f 1f 19 be
       0.100811355 0.13557023 -0.113077916 -0.14953421
0001a0 1f f1 0e 3e 5a e7 e6 3d ab 55 45 3e de d1 14 be
       0.13959168 0.112745956 0.19270961 -0.14533183
0001b0 e3 35 2b 3e d4 59 1e 3e 74 1b 0d be 7f 76 66 be
       0.16719775 0.15463954 -0.13780004 -0.2250614
0001c0 47 95 00 3e c3 13 e0 3d a5 3f 0e 3e 4a c5 f3 3d
       0.12556945 0.10941269 0.13891466 0.11902864
0001d0 13 51 d5 3d 32 ef ba 3d 2e 52 fc 3d be 9c 3e be
       0.10415854 0.09127654 0.12320362 -0.1861448
0001e0 54 ee 65 3e a6 c0 d9 bd 19 a1 fb 3d 40 46 eb 3d
       0.22454196 -0.10632448 0.12286586 0.114880085
0001f0 0c 81 0d 3e 94 27 03 be 48 0d e9 3d d4 e9 04 3e
       0.13818759 -0.12808067 0.11379486 0.12979823
