checkpoint_actor.pth (torch_old, 89026 bytes, 10 tensors)

fc1.weight f4 [128, 33]
0	0x3dba8acb	0.09108504
1	0xbe453d99	-0.19261779
2	0x3ce12ef8	0.027488217
3	0x3c189758	0.009313427
4	0xbeb4b25b	-0.35292324
5	0xbefa3210	-0.4886632
6	0x3dc6265a	0.09675284
7	0xbdc7be26	-0.09753065
8	0x3e58d8e5	0.21176489
9	0xbe8a09ac	-0.26960504
10	0x3da114b1	0.07865275
11	0x3d992e52	0.07479538
12	0xbac545db	-0.0015050726
13	0xbbb4f906	-0.00552285
14	0x3e212852	0.15738037
15	0xbe42cbd0	-0.19023061
16	0xbd23e806	-0.040016197
17	0x3ee57125	0.44812885
18	0x3f871e1f	1.0556067
19	0xbd990aa2	-0.07472731
20	0x3d0fe9bd	0.03513502
21	0xbcdc52ad	-0.026894892
22	0xbd27dab8	-0.04098007
23	0xbd264efa	-0.04060266
24	0x3ce2b994	0.027676381
25	0xbd95a368	-0.07306558
26	0xbbf17cc0	-0.0073696077
27	0xbe56dab2	-0.20981863
28	0x3e3e83ba	0.18604937
29	0xbd14c8a9	-0.036324177
30	0x3e367227	0.17816983
31	0x3bf1a300	0.0073741674
32	0x3eca73cc	0.3954147
33	0xbe4d2f78	-0.20037639
34	0x3c28fa8e	0.010313643
35	0x3ca96d1e	0.020681914
36	0xbe5ef74d	-0.21774025
37	0x3f1cdc59	0.61273724
38	0x3ce6723b	0.028130641
39	0xbeb69667	-0.35661623
40	0x3b8a9695	0.0042293766
41	0xbd8c2f46	-0.06844954
42	0x3d03f0b4	0.032211974
43	0xbda2a0ce	-0.07940827
44	0xbd4b4ea7	-0.049635556
45	0xbce61356	-0.028085392
46	0x3dbdb9c7	0.0926395
47	0x3e78728b	0.24262445
48	0x3d5d5e25	0.05404486
49	0x3e8bfa1b	0.27339253
50	0x3ed30a2c	0.41218698
51	0x3e400ddd	0.18755288
52	0x3ddf8914	0.109148175
53	0x3a8f99fe	0.0010955927
54	0xbdb4d1a2	-0.08829047
55	0x3e1be8aa	0.15225473
56	0x3d797901	0.060906414
57	0x3e06211e	0.1309857
58	0x3c829205	0.015938768
59	0xbec57d09	-0.38571957
60	0x3e3987a5	0.1811815
61	0x3d991e03	0.074764274
62	0x3d706856	0.058693253
63	0xbe90e5fb	-0.2830046
64	0xbbae50e0	-0.0053196996
65	0x3e32bc2b	0.17454593
66	0x3d6c97c8	0.057761937
67	0xbd9df83b	-0.07713362
68	0xbd502b60	-0.050822616
69	0x3eda342e	0.42617935
70	0x3ed88ba5	0.4229404
71	0x3e817987	0.2528803
72	0x3cfe6bd8	0.031057283
73	0xbbfe1a71	-0.007754617
74	0xbc98cbcd	-0.018651867
75	0xbdf49c47	-0.1194387
76	0x3d59f8dc	0.053215846
77	0xbcffde4b	-0.031233927
78	0x3ca36211	0.019944223
79	0xbe336639	-0.17519464
80	0x3d27c2cb	0.040957253
81	0xbda88144	-0.082277805
82	0xbeb1ea4d	-0.3474907
83	0xbe32556a	-0.17415395
84	0x3f27d51a	0.6555954
85	0xbdf4aeec	-0.11947426
86	0xbdead5d7	-0.11466568
87	0xbdcb5084	-0.099274665
88	0xbbd69cff	-0.006549477
89	0x3baa92fe	0.005205511
90	0x3cb72921	0.022358479
91	0x3d344ea6	0.044020317
92	0x3eb16b15	0.3465201
93	0xbe9e834e	-0.30959553
94	0x3d91493b	0.07094046
95	0xbd49c9b8	-0.04926464
96	0x3e49a72a	0.19692674
97	0xbce619d6	-0.028088491
98	0xbe76bec0	-0.24096203
99	0x3d0edcb9	0.034878466
100	0x3dace390	0.084418416
101	0x3dce7689	0.100812025
102	0xbeed1efe	-0.46312708
103	0xbe7ebc29	-0.24876465
104	0xbf3c00e4	-0.7343886
105	0x3f369923	0.7132742
106	0x3dc897ee	0.09794603
107	0x3e0ea22d	0.13929053
108	0xbe4c6362	-0.19959787
109	0xbd3c664b	-0.04599599
110	0x3d78f776	0.060782872
111	0x3caa42c1	0.020783784
112	0xbdade304	-0.084905654
113	0xbcad9848	-0.021190777
114	0xbdbf1473	-0.09330072
115	0x3cda20a4	0.026626892
116	0x3f2ce9e6	0.675444
117	0x3e1bdd07	0.15221034
118	0x3ed33f10	0.4125905
119	0xbd414f28	-0.04719463
120	0xbc327979	-0.010893219
121	0x3b4522eb	0.0030080627
122	0xbd854dec	-0.06509003
123	0xbd4472d3	-0.047961067
124	0x3d2ea74c	0.042640015
125	0xbe2f8420	-0.17140245
126	0x3c5c0b71	0.013430462
127	0xbcb5d40c	-0.022195838
128	0xbd819e09	-0.06328971
129	0xbd84493b	-0.0645928
130	0xbd98c07f	-0.07458591
131	0xbe9956f5	-0.29949155
132	0x3dd030fe	0.101655945
133	0x3daface7	0.085779004
134	0x3e7b4b9f	0.24540566
135	0xbea280a0	-0.31738758
136	0x3d5ece1b	0.054395776
137	0x3f6a3571	0.91487795
138	0xbf02bd81	-0.5107041
139	0x3c64ce15	0.013965149
140	0xbe3edaa3	-0.18638091
141	0xbc6815b6	-0.014165333
142	0x3db23145	0.08700804
143	0xbc563a3c	-0.013075408
144	0xbbb1bba4	-0.00542398
145	0xbc506c4b	-0.012721132
146	0xbd3698b6	-0.04457923
147	0xbd8e9b60	-0.06963229
148	0x3f74b73e	0.95592105
149	0x3e8f302e	0.27966446
150	0xbe324aac	-0.17411298
151	0xbeacf017	-0.33776924
152	0xbd09e359	-0.03366408
153	0xbd877f6e	-0.06616102
154	0xbc0c80ad	-0.008575601
155	0x3c91e169	0.01780768
156	0xbb91ea27	-0.004452962
157	0xbd47f61a	-0.048818685
158	0xbd2eae28	-0.042646557
159	0x3d98b686	0.074566886
160	0xba4a1c69	-0.0007709922
161	0xbd8141a7	-0.0631135
162	0xbdcc307b	-0.099701844
163	0x3d3ef60a	0.04662136
164	0xbed35290	-0.41273928
165	0x3e63a50e	0.22230932
166	0xbd769852	-0.060203858
167	0xbda3a3c6	-0.07990222
168	0xbed6610d	-0.4187092
169	0x3e0afb64	0.1357246
170	0xbf289154	-0.65846753
171	0xbed89780	-0.42303085
172	0x3ce80396	0.028322022
173	0x3ec71a48	0.38887239
174	0xbc74a489	-0.014931806
175	0x3d5fc8fd	0.054635037
176	0xbbc02221	-0.0058634435
177	0xbda6fb3d	-0.08153389
178	0xbd80e2b0	-0.06293237
179	0xbd1ad54c	-0.037801072
180	0xbe14e64c	-0.14540976
181	0x3ed97fb3	0.4248024
182	0xbed04b78	-0.40682578
183	0xbe81de03	-0.25364694
184	0xbf1df85d	-0.617071
185	0xbcc6d495	-0.024271289
186	0x3dc28ff9	0.09500117
187	0x3d28724b	0.041124623
188	0x3d518f09	0.0511618
189	0x3cf9cfb0	0.03049454
190	0xbdadf184	-0.08493331
191	0x3de80d69	0.11330683
192	0x3e74af48	0.2389499
193	0x3e450b00	0.19242477
194	0x3c598898	0.013277195
195	0xbe3aa070	-0.18225265
196	0x3d71dc36	0.0590479
197	0xbdd4034c	-0.10352191
198	0xbd3c1fa3	-0.04592861
199	0x3d1f9c05	0.03896715
200	0x3dc38bfb	0.095481835
201	0xbe146367	-0.14491044
202	0x3f14aa69	0.58072525
203	0xbd0ee864	-0.034889594
204	0xbf5a0f82	-0.85179913
205	0x3da05c90	0.07830155
206	0x3e9ea9f0	0.30989027
207	0xbc14c3d8	-0.009079896
208	0xbdd3c7d8	-0.103408515
209	0x3c6581a8	0.014007963
210	0x3cb84991	0.022496017
211	0x3dca982a	0.09892304
212	0xbcaf619b	-0.021408847
213	0x3e0daf7f	0.13836478
214	0x3e926cb1	0.2859855
215	0xbe3898c3	-0.18027024
216	0x3f1c927c	0.6116102
217	0x3f31a603	0.6939394
218	0xbc01ad50	-0.007914856
219	0x3dcf9585	0.101359405
220	0x3c573ec0	0.013137519
221	0xbd4e3b2c	-0.0503494
222	0xbd86eed8	-0.065885246
223	0xbbeff132	-0.007322454
224	0xbdd8347f	-0.10556888
225	0xbd6c86e4	-0.05774583
226	0xbdf1027b	-0.11768051
227	0x3d795dce	0.060880475
228	0xbd39982d	-0.04531114
229	0xbd9f67fc	-0.07783505
230	0xbeddb069	-0.43298653
231	0x3e1c7486	0.15278825
232	0x3dd57220	0.10422158
233	0x3c78e5b4	0.015191484
234	0xbcd159bf	-0.02555549
235	0x3dd478bd	0.103745915
236	0xbe04005f	-0.12890767
237	0xbe3cf174	-0.18451482
238	0xbbf09de0	-0.007343039
239	0x3d4ca636	0.0499632
240	0x3ce647dd	0.028110439
241	0x3d2c4fce	0.042068295
242	0xbc6f87b6	-0.014619758
243	0xbd1b66a8	-0.037939698
244	0x3ca5da44	0.020245679
245	0xbc7c38bc	-0.015394386
246	0xbd15600a	-0.036468543
247	0x3e93869f	0.28813645
248	0x3e4b58f6	0.19858155
249	0x3ec434b6	0.38321465
250	0xbdc795df	-0.097453825
251	0x3d215172	0.039384313
252	0xbdb5c02a	-0.08874543
253	0xbbc5d6e1	-0.0060375785
254	0x3d9ab193	0.07553401
255	0x3ce4c798	0.027927205

fc1.bias f4 [128]
0	0x3eac7617	0.33683845
1	0xbdd512e0	-0.10403991
2	0x3ed9fd5a	0.42576104
3	0x3e0c02f4	0.13673002
4	0xbe249006	-0.16070566
5	0xbe2a74e1	-0.16646148
6	0xbda2a2ec	-0.07941231
7	0xbe23c102	-0.15991595
8	0x3e478e84	0.19487959
9	0xbd205318	-0.039141744
10	0x3e96213f	0.2932224
11	0xbcd5036a	-0.026002605
12	0xbe23cd5c	-0.15996307
13	0xbe748fe1	-0.2388301
14	0xbd8378fc	-0.0641956
15	0x3d92f18d	0.071749784
16	0xbea4b552	-0.32169586
17	0xbe02cfae	-0.12774536
18	0xbd235072	-0.03987164
19	0x3dca90ed	0.09890924
20	0xbe8f1e9a	-0.27953035
21	0x3dc38a5b	0.095478736
22	0xbea365fb	-0.31913742
23	0xbd9ee8f3	-0.07759275
24	0xbcce7641	-0.025202872
25	0x3d4959e0	0.049157977
26	0x3dcc4c12	0.09975447
27	0xbe8cdbbc	-0.27511394
28	0x3da11966	0.078661725
29	0xbe8d4afc	-0.2759627
30	0xbebf1cb4	-0.37326586
31	0x3e10bf3f	0.14135455
32	0x3dc35810	0.09538281
33	0xbdacc38b	-0.08435734
34	0xbec77e7a	-0.3896368
35	0xbe54b14d	-0.2077076
36	0xbeefaf43	-0.46813402
37	0xbee520fb	-0.44751725
38	0x3e3a10e2	0.18170503
39	0xbe614716	-0.21999773
40	0xbe0e1895	-0.13876565
41	0xbe51d04c	-0.20489615
42	0xbe823006	-0.25427264
43	0x3de62b46	0.112387225
44	0xbe0d883e	-0.13821504
45	0xbeaf9b73	-0.34298286
46	0xbe6736a0	-0.22579432
47	0xbd9d2baf	-0.076743476
48	0xbe819a77	-0.2531316
49	0x3da0460d	0.07825861
50	0x3d353b52	0.044246025
51	0xbe977ad6	-0.29585904
52	0x3e33b460	0.17549276
53	0xbe7a7757	-0.24459587
54	0xbd9319b3	-0.07182636
55	0xbeb66694	-0.35625136
56	0xbeb98437	-0.36233684
57	0xbe728105	-0.2368203
58	0xbecacfcb	-0.39611658
59	0x3dab43f1	0.08362568
60	0xbe7567b4	-0.23965341
61	0xbe7936bb	-0.24337284
62	0x3dce1bbd	0.100638844
63	0xbe371779	-0.17880048
64	0xbdc56d93	-0.0964004
65	0x3f2e83ac	0.68169665
66	0xbe6d1a53	-0.23154573
67	0xbeb64e1e	-0.35606474
68	0xbe1e424c	-0.15454978
69	0x3d51611a	0.051117994
70	0x3c5acd04	0.013354544
71	0xbe11c917	-0.14236866
72	0xbe655448	-0.22395432
73	0x3eb55009	0.35412624
74	0xbdf2a967	-0.11848717
75	0xbe12ac8b	-0.14323632
76	0xbd1e3e29	-0.0386335
77	0xbe99c065	-0.30029598
78	0x3e62f918	0.22165334
79	0x3ebc4859	0.36773947
80	0xbe579837	-0.21054159
81	0xbe996c53	-0.29965457
82	0x3e92cafd	0.28670493
83	0x3e5a351a	0.21309319
84	0x3e141652	0.1446164
85	0x3e69c953	0.22830705
86	0x3ceff932	0.02929363
87	0xbe691904	-0.22763449
88	0xbea516a1	-0.32243827
89	0xbd1a606b	-0.037689608
90	0x3e54975e	0.20760867
91	0x3d8936e9	0.066999264
92	0xbdfb7a06	-0.122791335
93	0xbbc2cbda	-0.005944711
94	0xbe594021	-0.2121587
95	0xbe53ee34	-0.20696336
96	0xbe0fb60f	-0.14034294
97	0xbdccaf09	-0.09994323
98	0x3eaec38b	0.34133562
99	0xbdbc670f	-0.09199344
100	0xbdd897e4	-0.10575846
101	0xbd5be55f	-0.053685542
102	0x3e83f30d	0.2577137
103	0xbd7fbff5	-0.062438924
104	0x3da7e867	0.08198624
105	0xbe9688bc	-0.29401195
106	0xbc9d90f9	-0.019234167
107	0xbe0ebdbe	-0.13939568
108	0xbca11f8e	-0.019668367
109	0x3e85af61	0.26110366
110	0x3d365a67	0.04451981
111	0xbe058473	-0.13038807
112	0xbe7bce6a	-0.2459046
113	0x3c7ed59f	0.015553861
114	0xbed2f229	-0.4120038
115	0xbf0013b6	-0.50030077
116	0xbdf439f2	-0.11925115
117	0x3e81f805	0.25384536
118	0xbe1a3d29	-0.15062393
119	0xbe9eb9f3	-0.31001243
120	0x3e4118c1	0.18857099
121	0x3e5a3f25	0.2131315
122	0xbcbcceb2	-0.023047779
123	0xbe407cfe	-0.1879768
124	0xbe12a53c	-0.14320844
125	0xbdf41ccb	-0.11919554
126	0xbd0d4e2c	-0.03449838
127	0xbd9d3bf0	-0.07677448

bn1.weight f4 [128]
0	0x3f30aeac	0.6901653
1	0x3f3b0b38	0.73063993
2	0x3f7ee81d	0.99572927
3	0x3f895c7d	1.073135
4	0x3f1d5562	0.6145841
5	0x3f3f444e	0.747136
6	0x3ecf9d85	0.40549865
7	0x3f5ca452	0.8618823
8	0x3f2324b5	0.63727885
9	0x3ef4f6dc	0.4784459
10	0x3f84f683	1.038773
11	0x3f72ed3d	0.94893247
12	0x3f6dd904	0.92909265
13	0x3f045ad3	0.51701087
14	0x3f5d248c	0.8638389
15	0x3f3b1a6b	0.73087186
16	0x3f243fed	0.64160043
17	0x3f0e80c5	0.55665237
18	0x3f2a0132	0.66408074
19	0x3f6e6404	0.9312136
20	0x3f643574	0.89144063
21	0xbef6b5c1	-0.48185542
22	0x3f50cd09	0.8156286
23	0x3f440910	0.7657633
24	0x3f0fe246	0.5620464
25	0x3ff6dced	1.9286171
26	0x3f4a393c	0.7899358
27	0x3f59df10	0.8510599
28	0x3f6d0e47	0.9259991
29	0x3f8ec365	1.115338
30	0x3f8a3dd1	1.0800115
31	0x3eead6a7	0.45866892
32	0x3fa40c1e	1.2816198
33	0x3f69eea9	0.9137979
34	0x3f192223	0.59817713
35	0x3f4c6b77	0.7985148
36	0x3f4052a9	0.7512613
37	0x3f411f28	0.75438166
38	0x3f6c1e4c	0.9223373
39	0x3f7027f5	0.9381097
40	0x3f354130	0.70802593
41	0x3f70131a	0.93779147
42	0x3f8645f9	1.0490104
43	0x3f634e86	0.8879169
44	0x3f2d1244	0.67605996
45	0x3f0bc66e	0.54599655
46	0x3f1313e8	0.5745225
47	0x3f40d5b9	0.75326115
48	0x3f4589f6	0.77163637
49	0x3f254dc1	0.6457177
50	0x3f6118ea	0.8792864
51	0x3f8b6d21	1.0892678
52	0x3f68baa5	0.90909797
53	0x3fb5a9da	1.419246
54	0x3f34e792	0.7066585
55	0x3f84c5c4	1.0372853
56	0x3f574477	0.84088844
57	0x3ee6b5b5	0.45060506
58	0x3f8a5bb7	1.0809239
59	0x3f4c88f2	0.7989646
60	0x3f14f191	0.581811
61	0x3f0d95bd	0.5530661
62	0x3f1568b0	0.58362865
63	0x3f500f7c	0.8127363
64	0x3f52655d	0.8218592
65	0x3f8274db	1.0191911
66	0x3f2b1a5e	0.6683711
67	0x3f1a2751	0.6021624
68	0x3f4ed782	0.8079759
69	0x3f5eac64	0.869818
70	0x3f07474f	0.52843183
71	0x3f2515d6	0.64486444
72	0x3f42b67b	0.76059693
73	0x3f44631d	0.76713735
74	0x3f04e43b	0.5191075
75	0x3f912cdd	1.1341816
76	0x3f16c5ef	0.5889577
77	0x3f3cdda5	0.737757
78	0x3f95e790	1.1711292
79	0x3f50a757	0.8150534
80	0x3f6af409	0.9177862
81	0x3f735375	0.9504922
82	0x3f8a5393	1.0806755
83	0x3f4f9b80	0.8109665
84	0x3f30699f	0.68911165
85	0x3f430160	0.76173973
86	0x3f617d02	0.8808137
87	0x3f6f6186	0.93508184
88	0x3f78bb28	0.9716058
89	0x3f9a76b0	1.206747
90	0x3f67c3e3	0.90533274
91	0x3f463db5	0.7743791
92	0x3f54868d	0.8301781
93	0x3f6d8e44	0.92795205
94	0x3f11f116	0.5700849
95	0x3f3cff2e	0.73826873
96	0x3f58ee57	0.8473868
97	0x3f189816	0.59607065
98	0x3f3b2088	0.73096514
99	0x3f507c02	0.8143922
100	0x3f5ae6ef	0.85508627
101	0x3f82fc57	1.0233258
102	0x3f810783	1.0080417
103	0x3f9d2d0c	1.2279372
104	0x3f319d35	0.69380504
105	0x3fb3cf42	1.4047625
106	0x3f2609dd	0.648588
107	0x3f44ff9b	0.76952523
108	0x3f8e8a86	1.1136024
109	0x3f81d954	1.0144448
110	0x3f842515	1.0323817
111	0x3f543d89	0.82906395
112	0x3f584913	0.844865
113	0x3f85dec7	1.0458611
114	0x3f6f58a2	0.9349462
115	0x3f37803f	0.71680063
116	0x3f9800fc	1.18753
117	0x3fa0805a	1.253917
118	0x3f48a539	0.7837711
119	0x3f05ac4e	0.5221604
120	0x3f5008d5	0.81263477
121	0x3f5d993c	0.8656194
122	0x3f6cdc03	0.9252321
123	0x3f5d0868	0.8634095
124	0x3f75a2d7	0.959516
125	0x3f58d45c	0.84699035
126	0x3f49597b	0.7865216
127	0x3faad7b4	1.3347077

bn1.bias f4 [128]
0	0xbcfd2753	-0.03090254
1	0x3d3481da	0.04406915
2	0x3ea3687f	0.31915662
3	0x3ece85ca	0.40336448
4	0x3e1992fb	0.14997475
5	0x3c9616e4	0.018321462
6	0xbf01df8d	-0.50731736
7	0x3dacbba6	0.084342286
8	0x3cd51ef9	0.026015745
9	0x3ec9ce49	0.39415196
10	0x3e850f4f	0.25988242
11	0x3ea153b8	0.31509185
12	0xbe0246f3	-0.12722377
13	0xbd36915c	-0.04457222
14	0x3e9c2ba2	0.3050204
15	0x3dd2e9e6	0.10298519
16	0x3ddd3d09	0.10802657
17	0xbd2e32c4	-0.042528883
18	0x3e754be5	0.23954733
19	0x3db06d01	0.08614541
20	0xbd588538	-0.052861422
21	0x3e650f04	0.2236901
22	0xbe0c2b7b	-0.13688461
23	0x3d835136	0.06411974
24	0x3db69eaf	0.08916985
25	0x3e06c0ee	0.13159534
26	0x3e86cf8d	0.26330224
27	0xbe3dfb7a	-0.18552962
28	0x3df6f366	0.12058143
29	0x3e70ff7b	0.23534958
30	0x3e846061	0.2585478
31	0x3d9c2101	0.076234825
32	0x3de9a0c8	0.1140762
33	0x3eb9584a	0.36200172
34	0x3d507db2	0.050901122
35	0x3e8154fa	0.25260144
36	0x3f0aeca6	0.54267347
37	0x3e81ea83	0.2537423
38	0xbe19370e	-0.14962408
39	0xbe1df453	-0.15425234
40	0x3e07367e	0.13204381
41	0x3e90bc6a	0.2826875
42	0xbc56a617	-0.013101122
43	0x3d40640c	0.046970412
44	0x3dc219e4	0.094775945
45	0x3d425c0e	0.04745107
46	0xbd33ea0e	-0.043924384
47	0x3e83b697	0.25725242
48	0x3e408819	0.18801917
49	0x3e921771	0.2853351
50	0x3dd9bbfd	0.10631559
51	0x3ec9e105	0.3942949
52	0x3da56cf7	0.08077424
53	0x3ea01396	0.31264943
54	0x3dd580ee	0.10424982
55	0x3e3e7d72	0.18602541
56	0x3e7f445a	0.24928418
57	0xbeae71a9	-0.3407109
58	0x3eeab6d1	0.45842603
59	0x3d195b5d	0.037440646
60	0xbd2c2b33	-0.042033385
61	0xbdbaf604	-0.09128955
62	0xbe79e35e	-0.2440314
63	0x3e1ee35c	0.15516418
64	0x3da26ee9	0.07931311
65	0x3e348a7f	0.17630957
66	0x3e04a09c	0.12951893
67	0x3d6626f0	0.056189477
68	0x3e1767aa	0.14785638
69	0x3d1fda48	0.03902653
70	0xbd5705ca	-0.052495755
71	0x3e1d4457	0.15358101
72	0x3e488830	0.19583201
73	0x3eae3773	0.3402668
74	0x3e210dbd	0.15727897
75	0x3efbbd3f	0.4916782
76	0xbf02428c	-0.5088279
77	0xbd9d3a91	-0.07677186
78	0xbec5c43f	-0.38626286
79	0xbe6cdb0d	-0.23130436
80	0xbb4754ab	-0.0030415456
81	0xbe372caf	-0.17888139
82	0x3dba37d8	0.090926826
83	0xbaf80deb	-0.0018925046
84	0xbda87d7e	-0.08227061
85	0xbe94a19f	-0.29029557
86	0xbd7d993b	-0.06191371
87	0x3e03c7f1	0.1286924
88	0x3e228646	0.15871534
89	0x3eb5b0a5	0.35486332
90	0x3f053b68	0.5204377
91	0xbcfd3fdd	-0.030914241
92	0x3da68524	0.08130863
93	0x3ccf83ed	0.025331462
94	0x3f27896d	0.6544407
95	0xbe6c1b4a	-0.23057285
96	0xbc5f92b8	-0.01364582
97	0xbc99703c	-0.018730275
98	0x3d0ea00b	0.034820598
99	0x3e9a34a6	0.30118293
100	0xbda8cb53	-0.08241906
101	0x3e56dff8	0.20983875
102	0xbe278987	-0.16361056
103	0x3e232c1f	0.159348
104	0x3db78c45	0.08962301
105	0x3e113864	0.14181668
106	0x3e8ca9a9	0.2747319
107	0xbc0f1352	-0.008732634
108	0x3d18d918	0.03731641
109	0x3ecd5bc2	0.40109068
110	0x3e79044c	0.24318045
111	0x3e07e874	0.13272268
112	0x3e61b488	0.22041523
113	0x3d6b42c6	0.057436727
114	0x3ec57dd1	0.38572553
115	0xbcc02b73	-0.023458218
116	0x3e13306d	0.14373942
117	0xbee87aeb	-0.4540628
118	0x3efba604	0.49150097
119	0xbe10bc9d	-0.1413445
120	0x3d11a87e	0.035561077
121	0x3e146d05	0.14494713
122	0x3e582f9d	0.21111913
123	0x3eb9c7db	0.3628529
124	0x3c272959	0.010202729
125	0xbeae4424	-0.34036362
126	0x3e0d26a6	0.13784274
127	0x3eefbc34	0.46823275

bn1.running_mean f4 [128]
0	0x3f526b54	0.8219502
1	0x3e9639f9	0.29341105
2	0x3fc7a7a9	1.5598041
3	0x3e86cd6c	0.263286
4	0x3db307a0	0.08741689
5	0x3e8fcff3	0.2808834
6	0x3d4eabb2	0.05045671
7	0x3e8774bc	0.2645625
8	0x3fb51063	1.4145626
9	0x3ea7dd2c	0.32785928
10	0x3f9f9398	1.2466917
11	0x3d80f083	0.06295874
12	0x3e8440d5	0.25830713
13	0x3c1b3cce	0.009474946
14	0x3f9d5ced	1.2293984
15	0x3f31c735	0.6944459
16	0x3bc699e5	0.006060826
17	0x3e1859f7	0.14878069
18	0x3f3bb555	0.73323566
19	0x3e5a33f6	0.21308884
20	0x3e5d3e2a	0.21605745
21	0x3ead7f55	0.3388621
22	0x3d829f5a	0.0637805
23	0x3e971283	0.2950631
24	0x3edb8fcd	0.4288315
25	0x3e7001c4	0.23438174
26	0x3eb16322	0.34645945
27	0x3e5f45a1	0.21803905
28	0x3f170c03	0.59002703
29	0x3dfd42ae	0.12366234
30	0x3f0ed0e1	0.55787474
31	0x3f430dd9	0.76193005
32	0x3eabac02	0.3352967
33	0x3e931b12	0.2873159
34	0x3e9356b1	0.28777078
35	0x3e12257b	0.1427211
36	0x3e0c4663	0.13698725
37	0x3dcc85a0	0.099864244
38	0x3f56a1b9	0.8384052
39	0x3f0d9d03	0.55317706
40	0x3e7f5c38	0.24937522
41	0x3e599f86	0.2125226
42	0x3daa9c10	0.08330548
43	0x3f392179	0.723167
44	0x3f159725	0.58433753
45	0x3dfacaaa	0.12245686
46	0x3ec868c0	0.39142418
47	0x3df7a455	0.12091891
48	0x3e831329	0.25600556
49	0x3e031569	0.12801136
50	0x3f50bda9	0.815394
51	0x3e53512f	0.20636438
52	0x3fed41f0	1.8535748
53	0x3e0a558f	0.135092
54	0x3ed80a98	0.42195582
55	0x3db5605b	0.08856269
56	0x3d56a59f	0.052404042
57	0x3e238a50	0.15970731
58	0x3df24827	0.11830168
59	0x3f94f5f3	1.1637558
60	0x3e480bb2	0.19535711
61	0x3e0fc6b3	0.14040641
62	0x3db145a3	0.0865586
63	0x3e5fc660	0.21853018
64	0x3c9a96cb	0.018870732
65	0x401c5d41	2.4431918
66	0x3ed9d900	0.4254837
67	0x3e464e71	0.1936586
68	0x3e8a687a	0.27032834
69	0x3f2821f5	0.65676814
70	0x3f811052	1.0083106
71	0x3e5fd72d	0.21859427
72	0x3f45f7a5	0.77331
73	0x3f955cbd	1.1668926
74	0x3ec398b2	0.38202435
75	0x3f317ac6	0.6932796
76	0x3e99d1c2	0.30042845
77	0x3f2117bc	0.6292684
78	0x3f3e0257	0.7422232
79	0x3ecc589b	0.3991135
80	0x3f3d3820	0.73913765
81	0x3dd6d575	0.104899324
82	0x3fe551e9	1.7915622
83	0x3f98353d	1.1891247
84	0x3f877ff6	1.0585926
85	0x3fb0a389	1.3799907
86	0x3ed94ac7	0.42439863
87	0x3eb45fe4	0.3522941
88	0x3ea767df	0.32696435
89	0x3ea239a7	0.3168461
90	0x3f03e205	0.51516753
91	0x3e63dc91	0.22252108
92	0x3d8d0386	0.06885438
93	0x3fcc7ba5	1.5975233
94	0x3f7e81df	0.9941692
95	0x3e47f906	0.19528589
96	0x3eb47155	0.35242715
97	0x3dca7996	0.09886472
98	0x3f13fcbd	0.57807523
99	0x3eb7f8a6	0.3593189
100	0x3e354066	0.17700347
101	0x3e4ebe98	0.20189893
102	0x3e525d8e	0.20543501
103	0x3e839198	0.25697017
104	0x3ec55fe6	0.38549727
105	0x3df1adf4	0.11800757
106	0x3e040620	0.12892962
107	0x3e4d3296	0.20038828
108	0x3f6c77cf	0.92370313
109	0x40126f3a	2.2880387
110	0x3eb6da0b	0.3571323
111	0x3d1cf110	0.038315833
112	0x3e1667b5	0.14687999
113	0x3e379098	0.17926252
114	0x3ea0d971	0.31415895
115	0x3e6b6a34	0.22989732
116	0x3f22bc24	0.6356833
117	0x3f2b8c55	0.67011005
118	0x3d520391	0.051272932
119	0x3e07a81d	0.13247724
120	0x3f86cf25	1.0531965
121	0x3fe0be20	1.7558022
122	0x3f4424a8	0.76618433
123	0x3e99957e	0.29996866
124	0x3e7941cb	0.24341504
125	0x3eeea4e0	0.46610165
126	0x3e8ca29d	0.27467814
127	0x3e952a41	0.291338

bn1.running_var f4 [128]
0	0x3eae2cc4	0.34018528
1	0x3e91c44c	0.28470075
2	0x400a1f26	2.1581511
3	0x3e548953	0.2075551
4	0x3d592f6e	0.053023748
5	0x3e45a2e0	0.19300413
6	0x3d3d106c	0.04615824
7	0x3e6b2a04	0.22965246
8	0x3f37e6b8	0.71836424
9	0x3e92a7b0	0.2864356
10	0x3e8fdb2c	0.28096902
11	0x3d2c76da	0.042105533
12	0x3e239423	0.15974478
13	0x3bd079d8	0.006362181
14	0x3fb9d102	1.4516909
15	0x3f375df9	0.71627766
16	0x3bad1562	0.00528209
17	0x3e0362f0	0.1283071
18	0x3f244168	0.641623
19	0x3e379601	0.17928316
20	0x3e3782ba	0.17920962
21	0x3e9e4863	0.30914602
22	0x3d66e5c7	0.056371477
23	0x3e633032	0.22186354
24	0x3f1603eb	0.5859973
25	0x3e45589e	0.19272086
26	0x3ebd646c	0.36990678
27	0x3e37fad7	0.17966782
28	0x3e906aa0	0.28206348
29	0x3ddc325c	0.10751793
30	0x3f09b761	0.5379544
31	0x3f02aa68	0.5104127
32	0x3e8061a8	0.25074506
33	0x3e507f98	0.20361173
34	0x3e527d9d	0.2055573
35	0x3dd9ddcf	0.1063801
36	0x3da746d3	0.081678055
37	0x3d814762	0.06312443
38	0x3eabaea4	0.33531678
39	0x3f06c667	0.5264649
40	0x3e531907	0.20615016
41	0x3e3dcd28	0.18535292
42	0x3d891f65	0.06695441
43	0x3ee0bc72	0.43893772
44	0x3f367365	0.7126983
45	0x3e0fed77	0.1405543
46	0x3eadb163	0.33924398
47	0x3dcecbd7	0.10097473
48	0x3e5982e6	0.2124134
49	0x3dc03a2c	0.093860954
50	0x3f217283	0.63065356
51	0x3e1fb8f3	0.15597896
52	0x3f0a70ce	0.54078376
53	0x3deae597	0.11469572
54	0x3eb38ad3	0.35066852
55	0x3d65d4ba	0.056111075
56	0x3d2963c9	0.04135493
57	0x3e19b606	0.15010843
58	0x3db6cfde	0.08926366
59	0x3fc80b11	1.5628377
60	0x3e28a0be	0.16467568
61	0x3db5fb3b	0.08885809
62	0x3d948bec	0.072532505
63	0x3e87b42c	0.26504648
64	0x3c93a923	0.018024987
65	0x3ed17ca4	0.40915406
66	0x3ece2907	0.40265676
67	0x3e36e531	0.17860867
68	0x3e353370	0.17695403
69	0x3f0d601d	0.5522478
70	0x3faa5420	1.3306923
71	0x3e2f5f80	0.17126274
72	0x3f64390c	0.89149547
73	0x3f0d357f	0.55159754
74	0x3eb65c94	0.35617507
75	0x3f31dd7e	0.69478595
76	0x3e6d0161	0.23145057
77	0x3f477011	0.77905375
78	0x3eab1e07	0.33421347
79	0x3e99d3d8	0.30044436
80	0x3f8033d4	1.0015817
81	0x3d8baed6	0.06820457
82	0x3e9e8689	0.30962017
83	0x3f3fecb3	0.7497055
84	0x3f908036	1.1289127
85	0x3ee7d065	0.4527618
86	0x3ee4c95b	0.44684872
87	0x3e5b0442	0.21388343
88	0x3e8417c3	0.2579938
89	0x3ea86c22	0.32895
90	0x3ef0b6c2	0.47014433
91	0x3e5536fb	0.20821755
92	0x3d5f2843	0.054481756
93	0x4048cc9c	3.1374884
94	0x3fbf730b	1.4956983
95	0x3e2449b8	0.16043746
96	0x3e7499e8	0.23886836
97	0x3d9f4bdb	0.0777814
98	0x3ea98f1e	0.33117002
99	0x3e531f2f	0.20617364
100	0x3e172ebd	0.14763923
101	0x3e0c6c64	0.13713223
102	0x3e1b299f	0.15152596
103	0x3e3f5f9e	0.18688819
104	0x3eabff79	0.33593348
105	0x3d95de8a	0.073178366
106	0x3df87857	0.12132328
107	0x3e16398c	0.1467039
108	0x3e8c9582	0.27457815
109	0x3edcb73f	0.43108556
110	0x3eec2dac	0.46128595
111	0x3cf64eb6	0.03006683
112	0x3e0ccfa8	0.1375109
113	0x3e3592af	0.17731737
114	0x3e789c69	0.24278416
115	0x3e5cf278	0.2157687
116	0x3f0e03e4	0.55474687
117	0x3e9acc25	0.30233875
118	0x3d54d557	0.05196127
119	0x3dde9ee6	0.10870151
120	0x3ecdd41e	0.40200895
121	0x3e8b2237	0.2717454
122	0x3f1e9ae0	0.6195507
123	0x3e8c49c6	0.27400035
124	0x3e4a4bfc	0.19755548
125	0x3eee531f	0.4654779
126	0x3e6778c5	0.22604664
127	0x3e429c1b	0.19004862

fc2.weight f4 [128, 128]
0	0x3e41a2ee	0.18909809
1	0x3d1cb749	0.03826073
2	0xbe81780f	-0.2528691
3	0xbcdfe9cd	-0.027333165
4	0x3d7bdb1e	0.061488263
5	0xbda58129	-0.08081276
6	0xbe1adbe0	-0.15122938
7	0x3de12b22	0.10994555
8	0x3d460e7e	0.048353665
9	0xbe0bed97	-0.13664852
10	0xbe9672e2	-0.29384524
11	0xbcc496fa	-0.023997772
12	0x3e8f1c8e	0.27951473
13	0x3cf30936	0.029667478
14	0xbe00352e	-0.12520286
15	0xbd9a315b	-0.07528945
16	0xbe439bfd	-0.19102474
17	0x3de1e791	0.11030496
18	0xbe397970	-0.18112731
19	0xbdc24ea6	-0.09487657
20	0x3bf5a489	0.0074964208
21	0xbe3becd3	-0.1835206
22	0x3e2de897	0.16983257
23	0x3e118b3f	0.14213274
24	0x3d9e9a00	0.07744217
25	0xbe4a8087	-0.19775592
26	0x3d778ec4	0.060438886
27	0xbe125b1e	-0.14292571
28	0x3c9390da	0.018013407
29	0x3be21150	0.0068990365
30	0xbb473f0d	-0.0030402571
31	0x3e0703ae	0.13184997
32	0xbea5f05c	-0.32409942
33	0x3e82ddea	0.25559932
34	0x3d0f076c	0.034919187
35	0xbe27e8e8	-0.1639744
36	0xbd495018	-0.04914865
37	0xbec12538	-0.37723708
38	0xbe0ef92c	-0.13962239
39	0x3db0411a	0.08606167
40	0xbcbc0216	-0.022950213
41	0xbe397027	-0.18109189
42	0x3da3d80a	0.080001906
43	0x3e690bfc	0.22758478
44	0xbd2c461f	-0.04205906
45	0xbe285d33	-0.16441803
46	0xbe017202	-0.12641147
47	0x3d17110e	0.0368815
48	0xbd34d583	-0.044148933
49	0xbe7a9c05	-0.24473579
50	0xbec1242b	-0.37722906
51	0xbef91b27	-0.48653528
52	0x3d073d24	0.033017293
53	0xbe332af3	-0.17496853
54	0xbea67984	-0.32514584
55	0x3e26d7b6	0.16293225
56	0x3e043ab6	0.12913021
57	0x3e104258	0.14087808
58	0x3e8cff77	0.27538654
59	0x3eab3263	0.3343688
60	0xbd25da94	-0.040491655
61	0xbcefdfe0	-0.029281557
62	0x3ca13bdd	0.019681865
63	0x3d8e83ac	0.06958708
64	0x3e63e8b7	0.22256742
65	0xbe4cfe4e	-0.20018885
66	0x3c2f2a02	0.010691168
67	0x3dd1c5c0	0.10242796
68	0x3e8ab749	0.2709296
69	0x3e151a0f	0.14560722
70	0xbcc01ebd	-0.023452157
71	0xbe68389a	-0.22677842
72	0xbdaae582	-0.083445564
73	0xbe491a03	-0.19638829
74	0xbdd01d4c	-0.10161838
75	0xbeeffed8	-0.46874118
76	0xbcd5d3ec	-0.026102029
77	0xbde7ef34	-0.11324921
78	0xbe3bfa42	-0.18357185
79	0x3db9aede	0.090665564
80	0x3d81e911	0.06343282
81	0x3e4c8278	0.19971645
82	0xbcd88803	-0.026432043
83	0x3e2444a4	0.1604181
84	0xbea5994d	-0.32343522
85	0x3e8af185	0.2713739
86	0x3ddd5760	0.10807681
87	0x3d546653	0.051855396
88	0xbe8067b4	-0.2507912
89	0xbd927d76	-0.07152836
90	0xbda5dc85	-0.080987014
91	0x3e2aca5f	0.16678761
92	0x3d764494	0.060123995
93	0xbeec6849	-0.46173313
94	0x3c528292	0.012848513
95	0x3e457ba5	0.19285448
96	0xbea1efd4	-0.31628287
97	0x3daa71b1	0.08322466
98	0x3c34f81c	0.011045482
99	0x3e51d0a5	0.20489748
100	0xbd10947a	-0.03529785
101	0x3e7d30b9	0.24725617
102	0x3d37a4c6	0.044834875
103	0xbcd9ad6e	-0.026571956
104	0xbe0fe617	-0.14052616
105	0xbd3881e9	-0.045045767
106	0x3d5b5760	0.053550124
107	0x3e380c13	0.17973356
108	0xbc5b2e2e	-0.013377709
109	0x3eacdf1d	0.33763972
110	0x3de21cbd	0.11040638
111	0x3e6ee479	0.23329343
112	0xbda9bbf5	-0.08287803
113	0xbe7d29df	-0.24723004
114	0xbec8389a	-0.39105684
115	0x3ecb75da	0.3973835
116	0x3cfce095	0.030868808
117	0x3d80fd76	0.06298344
118	0xbea65696	-0.32487935
119	0xbd283279	-0.04106376
120	0x3d9b72d0	0.07590258
121	0x3da419a8	0.08012706
122	0xbddae1b2	-0.10687579
123	0xbe4c1fd9	-0.19934024
124	0xbd93255a	-0.071848586
125	0x3d86e706	0.06587033
126	0xbe127e83	-0.14306073
127	0x3dbd5a2d	0.09245715
128	0x3cae4aad	0.021275843
129	0xbe55b367	-0.20869218
130	0xbd270fc0	-0.040786505
131	0xbd361f2c	-0.04446332
132	0xbd8fe0ce	-0.070253
133	0xbd4cffef	-0.050048765
134	0xbd70fc7c	-0.058834538
135	0x3e3b88cf	0.18313907
136	0xbda41e6f	-0.08013617
137	0xbe4ea5c8	-0.20180428
138	0xbd65e5a2	-0.056127198
139	0xbda12d42	-0.0786996
140	0x3d9d3a1f	0.07677101
141	0x3eb764a9	0.35818985
142	0xbdd997f2	-0.106246844
143	0xbec5acd7	-0.3860843
144	0x3e7e3847	0.24826156
145	0xbc73f52e	-0.014889998
146	0x3eb017e8	0.3439324
147	0xbe62b6e5	-0.22140081
148	0xbea01241	-0.31263927
149	0xbe9928ff	-0.2991409
150	0xbbb93681	-0.0056522493
151	0xbe890bb9	-0.26766756
152	0xbe732c1a	-0.23747292
153	0xbe64b3a1	-0.22334148
154	0x3e6db34c	0.23212928
155	0xbe26568f	-0.16243957
156	0x3d232d61	0.0398382
157	0xbd912aa8	-0.07088214
158	0xbdf282f6	-0.11841385
159	0xbdb9cc6c	-0.090721935
160	0xbda0d2af	-0.07852685
161	0xbec18d5b	-0.37803158
162	0x3db3844d	0.08765469
163	0x3c057f0c	0.008147966
164	0xbde4d23f	-0.11172914
165	0xbe5be43c	-0.21473783
166	0xbeb980f9	-0.3623121
167	0xbe52997e	-0.20566365
168	0x3e76c022	0.2409673
169	0xbcc863ec	-0.024461709
170	0x3d1e6f2b	0.038680237
171	0xbebda514	-0.37040007
172	0x3cdc7659	0.026911901
173	0x3efb9f90	0.49145174
174	0xbd476cb2	-0.048687644
175	0xbd700bf0	-0.058605134
176	0x3e76bac6	0.24094686
177	0x3e8d05ed	0.27543584
178	0xbe341b6e	-0.17588589
179	0xbd6261aa	-0.05526892
180	0x3d17a439	0.03702185
181	0xbe3f6c58	-0.18693674
182	0x3d841bdc	0.06450626
183	0xbf0080d6	-0.5019659
184	0x3e45e379	0.19325055
185	0x3e59d622	0.21273091
186	0x3d499a02	0.04921914
187	0x3e5c0d16	0.21489367
188	0xbdf2573e	-0.118330464
189	0xbce39338	-0.02778016
190	0xbd3150bc	-0.043289885
191	0xbd9a3692	-0.0752994
192	0x3f155e98	0.58347464
193	0xbe991b86	-0.2990381
194	0xbe7a1c67	-0.24424897
195	0xbe978503	-0.29593667
196	0x3e5fe123	0.21863227
197	0x3e0a165c	0.13485092
198	0xbe71f978	-0.23630321
199	0xbe00885b	-0.12552015
200	0x3e8f3c55	0.27975717
201	0xbe3e53dc	-0.18586677
202	0xbe886a45	-0.26643577
203	0xbec6e47e	-0.388462
204	0xbdeb9e3a	-0.11504789
205	0xbe993cd0	-0.2992921
206	0xbd93db7f	-0.072196
207	0x3e4fbd28	0.20287001
208	0xbea4f990	-0.3222165
209	0x3e65b4a8	0.22432196
210	0x3df0840a	0.117439345
211	0xbe8ce2ec	-0.27516878
212	0xbeab1491	-0.33414128
213	0x3e662a11	0.22476985
214	0x3dbf3677	0.0933656
215	0x3e243b95	0.16038354
216	0xbe98ad3f	-0.29819676
217	0x3e96eb59	0.2947643
218	0x3e91aa54	0.28450263
219	0xbdfbb9c1	-0.12291289
220	0xbd5d14ab	-0.05397479
221	0xbe00414e	-0.12524912
222	0xbe0ffe6d	-0.140619
223	0x3d187334	0.03721924
224	0xbd39be18	-0.045347303
225	0x3e809e40	0.25120735
226	0x3bcbbe7c	0.006217776
227	0xbe674b36	-0.22587284
228	0xbcf1b983	-0.029507404
229	0xbf029044	-0.5100138
230	0xbe506b35	-0.20353396
231	0xbdee4b41	-0.11635447
232	0x3c23f15d	0.010006276
233	0xbd9f0bcf	-0.07765924
234	0xbe8de21f	-0.2771158
235	0xbe8ec3eb	-0.2788385
236	0xbeb18153	-0.3466898
237	0x3e42634b	0.1898319
238	0xbec8265a	-0.3909176
239	0xbd0537db	-0.03252397
240	0x3dc4b72b	0.09605249
241	0xbe81afa2	-0.2532931
242	0xbd9a8f51	-0.07546867
243	0x3e4001f5	0.18750747
244	0xbefb087d	-0.49029914
245	0x3e83eed3	0.25768146
246	0x3d98daa3	0.07463577
247	0xbe3ed3d6	-0.18635496
248	0xbdf79b68	-0.12090188
249	0x3d1a0cc7	0.03760984
250	0xbe3bdf8d	-0.18346997
251	0xbe20dcb1	-0.15709187
252	0x3e47fd76	0.19530281
253	0xbe8c0830	-0.27349997
254	0xbdb307c3	-0.08741715
255	0x3dde1e8e	0.108456716

fc2.bias f4 [128]
0	0xbe095a1a	-0.13413277
1	0xbdd16ac0	-0.10225439
2	0xbee2fa32	-0.4433151
3	0xbeb6525a	-0.35609704
4	0xbe86eab6	-0.26350945
5	0xbde0e1d8	-0.10980576
6	0xbef31ab4	-0.4748131
7	0xbe862181	-0.26197436
8	0xbe2a9824	-0.166596
9	0xbe1071cc	-0.1410591
10	0xbdc31f95	-0.09527508
11	0xbd366039	-0.04452536
12	0xbd965568	-0.07340509
13	0xbb662e57	-0.0035122836
14	0xbe5f44e7	-0.21803628
15	0x3e190310	0.14942575
16	0x3e1d66bd	0.15371223
17	0xbe6fc275	-0.23414023
18	0xbdeb9afc	-0.1150417
19	0xbd17f1cb	-0.037095826
20	0xbbde4807	-0.0067834887
21	0xbdd15f4b	-0.10223254
22	0xbd370f4c	-0.044692323
23	0xbcbaec01	-0.022817614
24	0xbe43c950	-0.19119763
25	0xbed4db16	-0.415734
26	0x3e2f50f6	0.17120728
27	0xbea0cf32	-0.31408077
28	0xbc984828	-0.018589094
29	0xbdc04b16	-0.093893215
30	0x3d471a48	0.048609048
31	0xbf217c9c	-0.63080764
32	0xbe422527	-0.18959485
33	0xbdb75b88	-0.08953005
34	0xbddefc97	-0.108880214
35	0xbd15a6bc	-0.036535963
36	0xbe2b0599	-0.16701354
37	0xbe89c9c6	-0.26911753
38	0xbe59a4d5	-0.21254285
39	0xbe055dd9	-0.13024081
40	0xbe183a4f	-0.14865993
41	0xbd7f3a25	-0.06231131
42	0xbdb02216	-0.086002514
43	0x3d39f936	0.04540368
44	0x3e5f70f5	0.21820433
45	0xbe94e4a2	-0.29080683
46	0xbec25a17	-0.37959358
47	0x3e8e5dbe	0.27805895
48	0xbe861b57	-0.26192734
49	0x3d58d9f8	0.052942246
50	0xbed2775e	-0.41106695
51	0xbefbbc73	-0.49167213
52	0xbe47baf2	-0.19504908
53	0x3d18107e	0.037125103
54	0xbdff5467	-0.1246727
55	0xbd24a299	-0.040194128
56	0xbce6657c	-0.028124563
57	0xbde1cf51	-0.110258706
58	0xbf049fce	-0.5180634
59	0x3e96c6ca	0.2944854
60	0xbf223d50	-0.63374805
61	0x3cda3996	0.026638787
62	0xbf2d7439	-0.67755467
63	0x3e2c5ec5	0.16833027
64	0x3d9f43c0	0.07776594
65	0x3e10aa8f	0.14127563
66	0xbd730b52	-0.059336968
67	0xbe7cbb90	-0.24680924
68	0xbdbbb4e6	-0.09165363
69	0xbf1a3dde	-0.6025065
70	0xbd8dda22	-0.06926371
71	0xbd23c865	-0.039986033
72	0xbe04f8ce	-0.12985536
73	0xbe3c0d08	-0.18364346
74	0x3e459156	0.19293723
75	0xbdb16981	-0.086627014
76	0x3db657ad	0.089034416
77	0xbe71abb6	-0.23600659
78	0xbe285892	-0.16440037
79	0xbe114b53	-0.1418889
80	0xbd944e0f	-0.07241451
81	0xbe32ea32	-0.17472151
82	0xbe886715	-0.26641145
83	0x3e1077a6	0.14108142
84	0xbe8f81f2	-0.28028828
85	0xbe830beb	-0.2559503
86	0xbea1bac3	-0.315878
87	0xbe151ac3	-0.1456099
88	0x3d16435a	0.036685325
89	0x3e0ac84f	0.13552974
90	0xbe3622ae	-0.17786667
91	0xbe02b2d4	-0.1276353
92	0x3e8df570	0.27726316
93	0x3d015263	0.03157271
94	0xbe2522be	-0.16126534
95	0xbe4eb912	-0.20187786
96	0xbee800f5	-0.4531323
97	0xbe51443c	-0.20436186
98	0xbe04747e	-0.12935063
99	0x3c833874	0.01601813
100	0xbe454b52	-0.19267014
101	0xbe862ef5	-0.262077
102	0xbecd691a	-0.4011925
103	0xbe374264	-0.1789642
104	0x3c0ccac4	0.008593265
105	0xbe2876e3	-0.16451602
106	0xbe92366d	-0.2855715
107	0xbf1493fc	-0.58038306
108	0xbd23b67f	-0.039968964
109	0x3dda8216	0.10669343
110	0xbdc50bd7	-0.09621399
111	0xbda6c6f5	-0.08143417
112	0xbea24bf2	-0.31698567
113	0xbdca27ba	-0.098708585
114	0xbd32ec64	-0.04368247
115	0xbc3e5434	-0.011616755
116	0x3e1a88cc	0.15091246
117	0xbec74b63	-0.38924703
118	0xbd9ad726	-0.075605676
119	0x3e7a8c3a	0.24467555
120	0xbe7b519d	-0.24542852
121	0xbefdbf26	-0.49559897
122	0xbf3d0a18	-0.73843527
123	0xbe3ad81c	-0.18246502
124	0xbd9509ea	-0.072772816
125	0xbe3d4f0e	-0.18487188
126	0xbc739c02	-0.014868738
127	0xbe31edd5	-0.17375882

fc3.weight f4 [4, 128]
0	0x3c9c2097	0.019058509
1	0xbf3fedc4	-0.74972177
2	0xbe9cb17c	-0.3060416
3	0x3f77ce05	0.96798736
4	0xbf8e5159	-1.1118575
5	0x3ef9b178	0.4876821
6	0x3f7d3971	0.98915774
7	0x3f5cb82b	0.8621852
8	0x3e979a61	0.2960997
9	0xbeec9e73	-0.46214637
10	0xbd92322f	-0.07138478
11	0xbf87db38	-1.0613775
12	0xbf8ed2c6	-1.1158073
13	0x3ed03b0b	0.40670046
14	0x3f328ec8	0.69749117
15	0xbf1092f7	-0.5647425
16	0x3e45cd8b	0.1931669
17	0xbf6e1ad6	-0.930097
18	0x3e93e6a5	0.28886905
19	0x3e53a51f	0.20668457
20	0xbfa70615	-1.3048731
21	0x3e4f276a	0.20229879
22	0xbec1c75a	-0.37847406
23	0x3ef9b7ac	0.48772943
24	0xbe90530b	-0.28188357
25	0xbf352aeb	-0.7076861
26	0x3f138f7c	0.57640815
27	0x3eee5e88	0.46556497
28	0xbb4f5be7	-0.0031640471
29	0xbf7ede68	-0.99558115
30	0xbe67fd25	-0.2265516
31	0x3eb3c5a4	0.35111725
32	0xbf21321e	-0.629671
33	0xbf9ef86a	-1.241956
34	0x3f577ba4	0.84173036
35	0x3f0599a2	0.5218755
36	0xbee81049	-0.45324925
37	0x3ec19c85	0.37814727
38	0xbda84dbf	-0.08217954
39	0x3f210174	0.6289284
40	0x3e6e32ab	0.23261516
41	0x3ef0bb77	0.47018024
42	0xbf2d220e	-0.6763009
43	0xbe1f78f0	-0.15573478
44	0x3f345289	0.7043844
45	0x3da0e8ca	0.07856901
46	0xbe99e50d	-0.30057564
47	0xbd966a54	-0.07344499
48	0xbe0fa95d	-0.1402945
49	0x3eeb88d3	0.46002826
50	0x3dd1d944	0.10246518
51	0xbea58efc	-0.3233565
52	0xbed8d337	-0.42348644
53	0x3e93e7c4	0.2888776
54	0xbf0a1b6d	-0.539481
55	0xbe289046	-0.16461286
56	0xbd6210e4	-0.05519189
57	0xbe892833	-0.26788482
58	0x3f4e4ca2	0.8058568
59	0x3eedbf1e	0.46434873
60	0x3f09d9f8	0.5384822
61	0x3e0b97d6	0.1363214
62	0x3f2e138b	0.6799857
63	0xbe443bee	-0.19163486
64	0xbf858673	-1.0431656
65	0x3e06af38	0.13152778
66	0x3c8e4ba7	0.017370058
67	0xbf5b6536	-0.8570131
68	0xbf9cb947	-1.2244042
69	0x3f917dc2	1.1366503
70	0xbf360044	-0.71094155
71	0x3e9dae4c	0.3079704
72	0x3e7a21f0	0.24427009
73	0xbf5bedf9	-0.8590999
74	0x3f3b323e	0.7312354
75	0xbfc92a97	-1.5716122
76	0x3e9d6b82	0.30746084
77	0xbd4d9f86	-0.05020096
78	0xbef24f69	-0.4732621
79	0xbf917a96	-1.1365535
80	0x3da881e4	0.082279
81	0xbf0d749b	-0.5525605
82	0x3f386c3d	0.7204016
83	0x3f977314	1.1831994
84	0xbf54a77e	-0.8306807
85	0x3d948eac	0.07253775
86	0x3b30ba07	0.002696635
87	0xbf322a44	-0.6959574
88	0x3e65c308	0.2243768
89	0xbbc93c02	-0.0061411867
90	0xbf15c4cd	-0.5850342
91	0x3f9ae0a0	1.20998
92	0x3e86e668	0.2634766
93	0xbdd03f4f	-0.10168325
94	0x3f7bad81	0.9831162
95	0xbd173f0a	-0.036925353
96	0xbef54b49	-0.47909
97	0xbe891049	-0.26770237
98	0x3fa03880	1.2517242
99	0xbf678121	-0.9043141
100	0x3f9522aa	1.1651204
101	0xbe6833f7	-0.22676073
102	0xbdbb24af	-0.09137856
103	0xbf48fc66	-0.7851013
104	0x3de99023	0.11404445
105	0x3f3d4bb7	0.73943657
106	0x3efd9e77	0.49534962
107	0xbd32a0c4	-0.04361035
108	0xbe0fa0fa	-0.14026251
109	0x3eabcc64	0.33554375
110	0xbef288fa	-0.4737013
111	0xbf03603c	-0.51318717
112	0xbf8b6e53	-1.0893043
113	0xbeb073a5	-0.3446323
114	0x3ec486d7	0.38384125
115	0x3d4241cd	0.047426034
116	0x3e644e59	0.22295512
117	0xbe603c8b	-0.21898095
118	0xbd98f488	-0.07468516
119	0x3eb47213	0.35243282
120	0xbef0469a	-0.46928865
121	0xbc21eaeb	-0.009882669
122	0xbf961c45	-1.1727377
123	0xbec1490e	-0.3775105
124	0x3d2f23e9	0.042758856
125	0xbf0e5d90	-0.55611515
126	0x3ef68a9a	0.4815262
127	0x3dc99e72	0.09844674
128	0x3f4620aa	0.7739359
129	0xbe8b33a9	-0.2718785
130	0x3ec26e60	0.37974834
131	0x3f2b77b1	0.6697951
132	0x3e2015a3	0.15633254
133	0x3f9c2df2	1.2201521
134	0x3f795f42	0.97410977
135	0xbf8d2cac	-1.1029258
136	0xbf2669b2	-0.6500503
137	0xbe35ecb8	-0.17766082
138	0xbec1bc2f	-0.37838885
139	0xbf445ce6	-0.7670425
140	0x3dcf5622	0.101238504
141	0xbe22ed6e	-0.15910885
142	0xbf591473	-0.8479683
143	0x3f83afc5	1.0288016
144	0xbdd811bd	-0.10550258
145	0x3d98e7bc	0.07466075
146	0xbebd27f1	-0.36944535
147	0x3fa3bf95	1.2792841
148	0xbf099964	-0.5374968
149	0x3f095728	0.53648615
150	0xbecd138a	-0.4005397
151	0xbea224d8	-0.31668735
152	0xbf124845	-0.57141525
153	0xbfa22e12	-1.267031
154	0x3ee87ad9	0.45406225
155	0xbf2ebc4f	-0.68256086
156	0xbe869347	-0.2628424
157	0xbe4dbea5	-0.20092256
158	0xbe0467f2	-0.12930277
159	0x3f8087a1	1.0041391
160	0x3e0284f9	0.12746038
161	0xbf176ee3	-0.59153575
162	0x3f8548b4	1.0412812
163	0xbef20906	-0.4727251
164	0xbebb16d3	-0.3654085
165	0xbf11383b	-0.56726426
166	0x3fb4d69d	1.4127995
167	0xbf1abd8b	-0.6044547
168	0xbe950b30	-0.29110098
169	0xbf7ce3d6	-0.9878515
170	0x3efe9ab9	0.4972742
171	0xbebb4c6c	-0.36581743
172	0x3e5ce2a9	0.21570839
173	0x3cd0e29c	0.02549868
174	0xbf828f2e	-1.0199945
175	0xbd89b2f4	-0.06723586
176	0xbecaa012	-0.3957525
177	0xbf016296	-0.50541055
178	0x3f5e187c	0.8675611
179	0x3ef77742	0.48333174
180	0x3f43b9b0	0.7645521
181	0xbef59f8e	-0.47973293
182	0xbe640631	-0.22267987
183	0x3f1877c0	0.59557724
184	0x3fa749aa	1.3069355
185	0xbf868735	-1.0510012
186	0x3e6b0bb3	0.22953682
187	0xbe3ba7ec	-0.18325776
188	0xbf89efc7	-1.0776299
189	0x3d4dfc8f	0.050289687
190	0x3f509828	0.8148217
191	0xbd76bb25	-0.06023707
192	0x3d95986f	0.07304465
193	0x3ec0ebee	0.3768
194	0x3e6e7fba	0.23290911
195	0xbf309f54	-0.68993115
196	0xbe3b561f	-0.18294571
197	0x3e6cb957	0.23117577
198	0x3e39c5a2	0.18141797
199	0x3eb88a60	0.36043072
200	0xbe860f7d	-0.26183692
201	0xbf31552e	-0.692706
202	0x3f614469	0.8799501
203	0x3e7b93f3	0.24568157
204	0xbe86d92a	-0.26337558
205	0x3ee6923c	0.45033443
206	0xbf422cf9	-0.7584987
207	0xbe42e756	-0.1903356
208	0xbf73521a	-0.9504715
209	0xbf33aa25	-0.70181495
210	0x3ee1995b	0.44062313
211	0x3ebb8ae0	0.3662939
212	0xbf225bbb	-0.6342122
213	0xbf9a8fa6	-1.2075088
214	0x3ef214fc	0.47281635
215	0xbfa73286	-1.3062294
216	0xbeb5b4c2	-0.3548947
217	0x3f6e0fb1	0.92992693
218	0xbdcc8af6	-0.09987442
219	0x3e513f06	0.20434198
220	0x3eaa18bc	0.33221996
221	0xbd9d4415	-0.07679001
222	0xbf86117d	-1.0474087
223	0xbec3339e	-0.38125318
224	0xbe6b8d82	-0.230032
225	0x3f814bcf	1.010126
226	0xbe89598d	-0.26826134
227	0xbef062f1	-0.46950486
228	0xbdaf566d	-0.08561406
229	0x3e287eea	0.16454664
230	0x3e3761f0	0.17908454
231	0xbf1e0dc3	-0.6173975
232	0x3f369803	0.713257
233	0xbef0f1a5	-0.4705936
234	0xbf277521	-0.654131
235	0xbe0f27f6	-0.13980088
236	0xbe59085c	-0.21194595
237	0x3f628cff	0.8849639
238	0x3f222f2c	0.6335323
239	0xbf81b1a4	-1.0132337
240	0x3ee359ea	0.44404536
241	0x3f5ead3d	0.8698309
242	0xbec2d806	-0.38055438
243	0x3f098dd7	0.53732055
244	0x3f5baae9	0.85807663
245	0x3f13dd27	0.57759327
246	0xbf5315de	-0.8245524
247	0xbf13aa76	-0.5768198
248	0x3f993ce3	1.1971706
249	0xbebf3c5d	-0.3735074
250	0x3f00e0cd	0.5034302
251	0x3ee32e8d	0.44371453
252	0xbee14398	-0.43996882
253	0x3f07e518	0.53083944
254	0xbea29436	-0.317537
255	0xbea47134	-0.32117617

fc3.bias f4 [4]
0	0x3de0a763	0.109694265
1	0xbdec027d	-0.11523912
2	0xbda30ad2	-0.07961048
3	0xbb855d3d	-0.0040699528
